linear_nn.pth (torch, 169379 bytes, 8 tensors)

linear1.weight f4 [128, 6]
000000 eb bd 5f 3e 8e dc 3f be 93 a0 ba bd 05 12 86 be
       0.21849792 -0.18736479 -0.09112658 -0.26185623
000010 c5 38 b2 bc 4d 79 5c bd fa d3 b2 be 56 17 0a 3e
       -0.021755585 -0.05382662 -0.3492735 0.13485464
000020 a5 da d0 bd 7c b5 51 be 85 c0 ae 3c 3c 97 c3 3e
       -0.10197953 -0.20479387 0.021332035 0.3820132
000030 be 5c de bd d0 ee 7a bd 75 5f fc bd 1e 7f 0a 3e
       -0.10857533 -0.061262906 -0.123228945 0.13525054
000040 47 22 43 3e fe 77 8e 3e 02 3d 06 3e ff 46 82 be
       0.19056045 0.27825922 0.1310921 -0.2544479
000050 bb c1 50 be 13 b3 b7 3e 20 ca bf be 2d fc 3b 3e
       -0.20386402 0.3587881 -0.37458897 0.18357916
000060 d2 71 8c 3d 42 ce c9 3e 72 2a e9 bb 63 cb 08 3e
       0.06857647 0.39415175 -0.0071156556 0.13358836
000070 5f b0 ce be de 1a 1f 3d 04 9a c1 3e 5e 2b 6d be
       -0.40368935 0.038843982 0.37812817 -0.23161075
000080 a3 4e 82 bd ad 79 b5 bd 1f 2b 37 be ca 3e a6 bd
       -0.06362655 -0.088610984 -0.17887543 -0.08117445
000090 ca cd 2b 3e 09 f3 73 3e 2b 63 af bd ae 05 a8 be
       0.16777721 0.2382318 -0.08563837 -0.32816833
0000a0 e7 3b 1c 3e 53 5a e3 3e e4 c1 83 3e a4 1d a1 be
       0.15257226 0.4440485 0.25733864 -0.31467927
0000b0 d8 a7 24 be 83 d4 9f 3c 54 bf 61 be 48 f7 39 3d
       -0.16079652 0.019510513 -0.22045642 0.04540184
0000c0 f4 82 c1 3e e6 c6 b8 be 08 4b b2 bd d8 29 c4 be
       0.37795222 -0.36089247 -0.08705717 -0.38313174
0000d0 ad 4a 29 be 5e 25 de bd d5 91 8b 3e c1 7c 59 be
       -0.16532393 -0.10846971 0.272597 -0.21238996
0000e0 46 fd 99 bc 9b 74 06 3e d3 8c cd bd a2 15 5d 3d
       -0.018797528 0.13130419 -0.10036626 0.05397571
0000f0 4d 45 8f 3e 10 a6 f8 bd d9 16 d5 be eb 82 48 be
       0.2798256 -0.12141049 -0.41618994 -0.19581191
000100 f2 65 c3 3d 5b 48 86 3e 28 61 90 be 1a 2a 75 3e
       0.09540929 0.26227078 -0.28199124 0.23941842
000110 ae 89 87 be 5e 42 31 3e 0b 38 97 3e 42 64 a6 be
       -0.2647223 0.17310473 0.29534945 -0.32498366
000120 ed 37 5b 3e d9 03 d2 be fb f2 e0 bd fd 27 21 3e
       0.21408053 -0.4101856 -0.10983845 0.1573791
000130 37 b6 d7 3e 50 17 28 3e ca 47 23 be 3a 0f 81 3e
       0.42131206 0.16415143 -0.15945354 0.2520693
000140 52 88 b1 be 59 2b c8 be 63 ad 70 3e 16 f2 c1 3e
       -0.34674317 -0.39095572 0.23503642 0.3788001
000150 4b 05 82 be 04 25 df 3d ef 08 cd be 0b 85 25 be
       -0.25394663 0.10895732 -0.40045878 -0.16164033
000160 f2 29 84 be 7a 3c 6e 3c c0 56 56 be 6e 26 18 3e
       -0.25813252 0.014540786 -0.2093153 0.1485841
000170 c3 e4 c6 3e be 38 64 be ee f9 61 3e 95 24 38 bd
       0.38846406 -0.2228727 0.22067997 -0.044956762
000180 b8 0d 96 3d b2 00 80 be f3 45 8f be 27 fb ac 3e
       0.073268354 -0.2500053 -0.27983055 0.33785364
000190 55 5b 0f be d7 03 f3 bd af 28 e3 3d c1 63 9b be
       -0.13999684 -0.11865967 0.11091744 -0.30349544
0001a0 a5 c4 5f be 15 7c d6 3d 6b 5f 5a be d6 e6 8b be
       -0.21852358 0.104728855 -0.21325462 -0.2732455
0001b0 00 b7 16 be 61 3b 33 3e 1f a4 b2 3d fd fa 1c be
       -0.14718246 0.1750312 0.0872271 -0.1533012
0001c0 9c 09 85 be 5f 53 b5 be 73 81 d1 bb 4e b7 9e be
       -0.25983894 -0.3541517 -0.0063936054 -0.30999225
0001d0 07 80 6f bd f7 e2 b5 be e7 4d 1f be 06 ef d0 3e
       -0.058471706 -0.35524723 -0.15557061 0.4080736
0001e0 ed 2f 9a 3e 34 15 4f be ec 5d 9a 3e 62 8e 96 3e
       0.3011469 -0.20222932 0.30149782 0.29405504
0001f0 b4 9c af 3d 51 74 68 be b4 ab d5 3d 2d bd 10 3e
       0.085748106 -0.22700621 0.104331404 0.14134665
000200 ba 4f 68 3e 70 53 a2 3e 97 27 c1 be 6a ba 2e be
       0.22686663 0.31704283 -0.37725517 -0.17063299
000210 08 24 05 3e 8c 89 3a 3e a9 c9 60 3e c4 2f cf 3e
       0.13002026 0.18216532 0.21951927 0.4046613
000220 83 ec 9f 3c d4 20 d9 be f1 f6 81 be 17 90 7c 3e
       0.019521957 -0.42407858 -0.25383714 0.24664341
000230 84 47 7f be e6 ee a5 3e b7 eb a6 3e 53 49 6c be
       -0.24929625 0.32408828 0.3260171 -0.23074846
000240 2a a4 93 be e4 f3 3a 3e 5d 1a d2 3e 0c 61 8c be
       -0.28836185 0.182571 0.4103574 -0.2741779
000250 cb b6 92 be bc d3 e1 3e 45 52 b4 be 15 e5 74 be
       -0.28655085 0.44106853 -0.35219017 -0.23915513
000260 df 88 df 3e 15 66 c6 be 9d 3d c1 bb b2 f5 b9 be
       0.43659112 -0.38749757 -0.0058972375 -0.36320263
000270 79 a2 c5 bd 65 60 94 be 79 84 e0 be 43 31 5b 3e
       -0.0965013 -0.28979793 -0.4385107 0.2140551
000280 5f be f0 3d e5 db af be c4 1f 83 3d 66 ec 34 be
       0.117550604 -0.34347454 0.06402543 -0.17668304
000290 93 31 4e bc 81 22 22 be 94 5f 98 be 7e ef a3 be
       -0.012585062 -0.15833475 -0.2976042 -0.32018656
0002a0 0f c0 9a 3e a6 de c1 3c 6b 10 67 3e eb 89 70 be
       0.30224654 0.023665737 0.22564857 -0.23490112
0002b0 71 d2 8e be bf 05 76 be 2e b1 6e bd 2c fd 89 be
       -0.2789493 -0.2402563 -0.05827444 -0.26950967
0002c0 a9 23 f8 3d e7 a7 8a 3e 57 79 8a be 2f 6e af be
       0.12116177 0.27081224 -0.270457 -0.3426375
0002d0 87 05 51 bd 58 9a e6 3d f6 a3 c0 3e e4 76 22 3e
       -0.051030662 0.112599075 0.37625092 0.15865666
0002e0 36 58 2e be 8e 96 88 3e 3b 0e 9b be bc cd d2 3d
       -0.17025837 0.26677364 -0.30284294 0.10293147
0002f0 57 1e 70 be ea b5 18 bd 33 28 6a 3e 99 30 58 be
       -0.23449074 -0.03728286 0.22866897 -0.21112289
000300 df 56 89 3e aa 8d b2 bd 93 17 1d be 6c f7 d2 be
       0.2682409 -0.087184265 -0.15341024 -0.41204393
000310 ac 9f 82 3d ca 0b 3b 3e 29 82 59 3e 3a 64 bf 3c
       0.06378111 0.18266216 0.21241058 0.023363221
000320 74 60 c5 3e a0 2f c8 bd aa 68 a7 bd 13 28 32 3e
       0.3855015 -0.09774709 -0.0817426 0.173981
000330 3b 85 8d 3e 9a 07 d9 be 92 c5 39 3e 3c 9f c5 be
       0.2764071 -0.42388612 0.18141773 -0.3859805
000340 3c 6e ca be 70 4f 4c be 35 fc 83 3c 1c 2e 2e be
       -0.39537227 -0.19952178 0.016111473 -0.17009777
000350 48 44 cd 3e f5 62 8b 3e 39 90 20 be 21 5b ba be
       0.40091157 0.27223936 -0.15680017 -0.3639765
000360 b7 a2 ca 3e 60 dc 35 3d f2 6f db 3e 7f b2 dc bd
       0.39577267 0.04439962 0.42858845 -0.10776233
000370 da 6c 13 be ea 9e 15 3e 27 07 65 be 5f 1a b2 be
       -0.14396992 0.14611402 -0.2236601 -0.34785745
000380 61 27 a6 3e 88 45 81 be 80 a9 14 be 44 58 2b 3e
       0.3245192 -0.2524836 -0.14517784 0.1673289
000390 8a b5 b6 3c 45 c2 82 3d ad 7e 12 be 2a 21 1d 3e
       0.022303361 0.0638471 -0.14306135 0.15344682
0003a0 9b 77 9a be cb 75 94 3d bd db 2e 3d f3 8e d0 be
       -0.30169377 0.0724903 0.042690028 -0.40734062
0003b0 14 eb a1 bd d9 f6 e1 3e a8 fa 68 3e 1c 29 56 be
       -0.07906166 0.44133642 0.22751868 -0.2091412
0003c0 16 ea cc be da 93 30 be f5 b4 23 3e 1d f5 36 3e
       -0.40022343 -0.17243901 0.15986998 0.17866941
0003d0 d2 de 53 bd 2f 71 99 be 30 49 8e be 2c 88 7c 3e
       -0.05172617 -0.29969165 -0.27790213 0.2466132
0003e0 b1 44 0f 3e a7 1a 96 3e 45 d8 93 be 1f b3 23 bc
       0.13991047 0.2931721 -0.28875938 -0.009991436
0003f0 8b 1b 6b 3d 32 83 5d 3e 89 64 cb be 98 81 c7 3d
       0.057399314 0.21632078 -0.3972514 0.09741515

linear1.bias f4 [128]
000000 c4 08 a6 3e 40 1c 06 bd 9e 4d 3d 3e 39 cf 9d 3c
       0.32428563 -0.032741785 0.1848664 0.01926385
000010 91 4f 56 3d f1 4b 91 3e 0a 11 e9 3d 6f 31 d4 3e
       0.052321974 0.2837825 0.11380203 0.41443965
000020 12 fc b8 3e c2 81 f5 3c 7b 78 ad 3e c7 15 b9 bd
       0.36129814 0.0299691 0.33880982 -0.09037357
000030 44 b6 63 bd 2c 9f 0d be 07 57 ca 3d 5d 1a c4 be
       -0.055593744 -0.1383025 0.098798804 -0.38301364
000040 56 80 0f 3e de 96 02 3d b2 23 b2 bd 20 c0 c0 3d
       0.140138 0.03188216 -0.086982146 0.09411645
000050 59 e9 26 be 52 80 cd 3e c5 ad 22 3e 65 b2 20 be
       -0.16299953 0.40136963 0.158866 -0.15693052
000060 93 8f 72 be ee 24 d4 bd ff bb f0 bd bb df 78 3e
       -0.23687582 -0.10358606 -0.117546074 0.24304096
000070 e6 4a 26 3e 2f 35 38 bd 5c 02 95 3d 0f ae 07 be
       0.16239509 -0.044972595 0.07275841 -0.13249992
000080 be b6 7a be e1 1d 68 be af 3e d5 bb 97 2f 2e 3e
       -0.24483773 -0.22667648 -0.0065077166 0.17010342
000090 2d 5e a4 bb e4 df 82 be 76 de 7e be be 22 d0 3e
       -0.0050161094 -0.2556144 -0.2488955 0.40651506
0000a0 c9 47 0b 3e 47 88 7c be f5 05 41 3e 05 62 36 3e
       0.13601603 -0.2466136 0.18849929 0.17810829
0000b0 24 8d 50 3e d7 0c 61 3e 2b 12 fd 3d 42 6f be be
       0.20366341 0.21977554 0.12356981 -0.37194258
0000c0 97 01 c9 be 5d 00 98 be 8c f3 55 be a7 d1 8c be
       -0.39259025 -0.29687777 -0.20893687 -0.27503702
0000d0 0d df 38 3e b1 57 b7 3e c3 e0 a4 bb a7 fd 7c 3e
       0.18053837 0.3580909 -0.0050316765 0.24706136
0000e0 6f e5 68 3e bf ee 0c be b5 05 2d be a5 2a ab 3e
       0.22743772 -0.1376295 -0.16896708 0.33430973
0000f0 31 8e 4d be 0f 0c 08 be 81 9f 70 3e 31 7f 38 3e
       -0.20073773 -0.1328585 0.23498346 0.1801727
000100 54 2f 2a 3e a4 08 1a 3d c7 a2 6f bd e8 66 cf bd
       0.16619617 0.037605897 -0.058504846 -0.1012705
000110 17 e1 91 be 8d d7 cc 3e 30 45 45 3e f9 dc 9b be
       -0.28492042 0.40008202 0.19264674 -0.30442026
000120 ba be 8e 3e 51 49 c5 be 29 ea a9 be aa 52 c3 3e
       0.27879888 -0.38532498 -0.33186463 0.38149005
000130 e9 29 86 3e a6 8e a1 bd b8 51 97 3e 3e cd a3 be
       0.2620385 -0.07888536 0.29554534 -0.31992525
000140 b2 8d 38 3b e1 05 25 be e1 59 87 bb 01 07 84 be
       0.002816063 -0.16115524 -0.0041305874 -0.25786594
000150 64 55 c6 be 60 40 98 be 83 19 bb be f5 93 d6 3c
       -0.38737023 -0.29736614 -0.365429 0.026193598
000160 12 b3 9a be 90 3c b0 be dc 4f a9 3e 8e 18 b1 3d
       -0.30214745 -0.34421206 0.3306874 0.086472616
000170 fa a4 4a 3e af ca b8 be 60 81 9a bd 57 80 ed 3d
       0.19789496 -0.36092135 -0.075442076 0.115967445
000180 a9 3a ad bd 6f 56 c8 3e fe b3 bc 3e 5a da f8 bc
       -0.08458454 0.39128444 0.36856073 -0.030377556
000190 57 53 a5 3e d1 6b 12 bd 78 be cf bd f3 4d 2d 3e
       0.32290146 -0.035747353 -0.10143751 0.16924267
0001a0 83 a1 37 bd fd 45 48 3e d5 4a 4d 3e 14 d9 62 be
       -0.044831764 0.19557948 0.20048077 -0.22153121
0001b0 73 a4 5a be 92 74 8c 3e 21 a0 b7 3e 66 5f 4e bb
       -0.21351795 0.27432686 0.35864356 -0.0031489967
0001c0 26 1e 66 3e f9 30 bc be 13 68 fb bc 56 f4 a9 3d
       0.22472438 -0.36756113 -0.030689275 0.082985565
0001d0 9e 80 7f 3e 28 84 02 3e 10 c3 93 3e de 6f 16 3d
       0.24951407 0.12745726 0.28859758 0.03672778
0001e0 f7 5d 1a bd 14 0b 71 be 90 ae 70 be b2 bb f5 bd
       -0.037687268 -0.23539382 -0.2350409 -0.11998691
0001f0 7e 5a 58 3b 98 e9 53 3e 44 d1 bb 3d 8a ca d6 bd
       0.0033012922 0.20694578 0.091707736 -0.1048785

linear2.weight f4 [128, 128]
000000 79 f9 4a 3d 67 84 ea 3d fa 88 ee 3d a3 87 a3 bd
       0.049554322 0.11451035 0.1164722 -0.07984855
000010 cd ce a8 3c 37 36 4d 3c 83 55 80 3b b9 43 85 bd
       0.020606423 0.012525133 0.003916444 -0.06507058
000020 ee 3b 3a bc ac c0 aa bc fe 9c 6b bd 53 bd aa 3d
       -0.011366827 -0.020843826 -0.057522766 0.08336892
000030 94 84 ae 3d 03 4a 06 3d e6 03 a1 3c 2d 4e 32 bd
       0.08521381 0.032785427 0.01965518 -0.043531585
000040 46 ed 74 bd 99 c1 b0 bd d1 3f 17 3d a0 07 51 3d
       -0.059796594 -0.08630676 0.036926094 0.051032662
000050 bb 15 7e bd 5d c1 74 bd 61 e4 e5 bc f8 b8 59 bd
       -0.062032443 -0.059754718 -0.028063001 -0.053154916
000060 4d e4 f9 ba 1a 55 d2 bc 4e 23 7e bd 96 d6 89 bd
       -0.0019065231 -0.025675345 -0.062045388 -0.06730382
000070 6a 04 67 bd 7a d4 b5 3c ed 3a 3f 3d c9 fc 8b 3d
       -0.056400694 0.022196043 0.046687055 0.06835324
000080 b3 24 a2 bd 85 94 a4 3d 99 d7 3d bc 40 66 f4 3c
       -0.07917156 0.0803614 -0.011587047 0.029833913
000090 6e 48 2b bc 7c 09 0b 3c 70 e3 91 3d 3c 4e 1d 3d
       -0.01045428 0.008486148 0.071234584 0.03840469
0000a0 b0 eb 55 bd 94 50 8e bd b6 03 5e 3d 93 c4 21 bd
       -0.052226722 -0.06948963 0.054202758 -0.03949411
0000b0 d2 e7 0d 3d d0 5a c0 bc eb ec 14 3c 80 2d 82 3c
       0.03464491 -0.023480803 0.009089689 0.015890837
0000c0 01 87 e4 bd 43 db 32 3c a3 53 9c bd c1 7e 37 bd
       -0.111585625 0.010916534 -0.0763314 -0.044798616
0000d0 94 93 2f 3c df 61 ca bc 53 ce 29 bd d5 15 e3 3d
       0.010716338 -0.024704872 -0.04145653 0.110881485
0000e0 32 7c 3c 3c 6d b5 54 bc 61 f9 9d bd af b7 7a bc
       0.01150422 -0.012982708 -0.07713581 -0.015302583
0000f0 7e 70 86 bd 4e fe 61 bd 2b ae 08 3d aa 0d 03 bd
       -0.06564425 -0.055174164 0.033369225 -0.031995453
000100 28 39 92 bd a4 47 85 bc e6 69 2e 3d b6 b1 66 3b
       -0.07139808 -0.016269512 0.04258146 0.0035201139
000110 5a 7e e1 bd 6d 1a da bc 2f 53 12 3d ba 12 2a 3c
       -0.11010428 -0.026623929 0.03572386 0.010380441
000120 c7 8a 5c 3d 22 10 cd ba 6b fc 2d 3d 44 78 1d bd
       0.053843286 -0.0015645067 0.042477053 -0.038444772
000130 8a 47 0d 3d ca ae cd 3c 79 d4 0f bd 8f 81 7c bd
       0.034492053 0.02510776 -0.03511474 -0.061646994
000140 ef 01 06 3d 92 17 f6 bc ef db 9f bd aa 22 a9 bd
       0.032716688 -0.030040536 -0.07805621 -0.08258565
000150 00 ae 37 3d 87 79 75 bd 73 c5 84 bd a1 63 36 3d
       0.044843674 -0.05993035 -0.06482973 0.044528607
000160 92 7f 33 3d 7a bf 5e 3d 0b 04 65 3d 91 f7 22 3d
       0.043822832 0.054381825 0.05591206 0.03978688
000170 2a e0 69 3d f2 95 47 3d 13 9c 58 3d c9 87 04 bd
       0.057098545 0.048726983 0.05288322 -0.032356057
000180 25 04 03 3d c4 85 b5 3b 67 16 98 bc 22 53 39 bd
       0.031986374 0.0055396277 -0.01856537 -0.045245297
000190 21 3c a9 3d f3 0e 60 3d 13 87 c2 3b 52 45 70 3d
       0.08263422 0.054701757 0.0059365123 0.05865986
0001a0 88 1a 0a bd 38 0b 52 bd 28 7e fd bb 8c 69 2f 3c
       -0.03371671 -0.05128023 -0.0077359863 0.010706317
0001b0 f6 dc c7 3d 9c 36 90 bd 14 a3 81 3d da 17 97 3d
       0.09758942 -0.07041666 0.06329933 0.07377596
0001c0 10 79 9e bd f3 99 4b 3d 9e 27 a6 3d 5d 27 50 3d
       -0.077379346 0.049707364 0.08113025 0.05081879
0001d0 64 b3 8c 3d 7e 2e 85 3d a3 25 40 bd de 88 5b 3d
       0.068701535 0.06503008 -0.046910893 0.053597324
0001e0 75 79 bf bd 8d ef a4 3b c8 03 af bd 25 cd b9 3c
       -0.09349338 0.0050334395 -0.08545643 0.022680828
0001f0 67 d2 bb 3d 34 30 85 3d 48 f6 97 3d 6a a2 4a bd
       0.091709904 0.06503335 0.07420021 -0.049471296
000200 be 4f d1 bc 26 c0 9b bb 8a 58 8d 3d 78 b5 ad bd
       -0.02555072 -0.0047531305 0.06901653 -0.08481878
000210 e7 f2 cd 3d 73 cb a3 3d 57 6b cd 3d 2e df 0e bd
       0.100560956 0.07997789 0.10030239 -0.03488081
000220 c3 cc df 3d 62 e8 a3 bd a8 15 6a 3d fd fe cb bd
       0.10927727 -0.08003308 0.05714956 -0.099607445
000230 83 bb e8 bc 33 01 4f 3d 2e 2a 3c bd 87 b4 da bc
       -0.028409725 0.050538253 -0.045938663 -0.02669741
000240 dd f4 d0 3c e8 be f8 bc c4 75 b1 bd 3e 1a 2b 3c
       0.025507385 -0.030364469 -0.0866504 0.010443268
000250 11 29 b2 bd 43 d2 6f 3d e7 14 26 bd 4d ac d0 bd
       -0.08699239 0.05855013 -0.040547278 -0.10189114
000260 54 d7 8c 3b 78 80 68 3b 31 be c4 bb 1c e9 d7 bb
       0.00429813 0.0035476964 -0.006004118 -0.006589068
000270 aa 8e 24 bd e1 91 cc bd 09 29 dd bc 73 2b 72 bd
       -0.040175118 -0.09988762 -0.026997106 -0.059123468
000280 7d dd e0 bd 0c 65 b4 3d 1d 79 e9 bd 6b 5c 6f bd
       -0.109797455 0.08808336 -0.11400054 -0.058437746
000290 49 b5 ce bc 49 1c 31 bd 3b af 7c 3d 2d e0 85 3d
       -0.025232928 -0.043239865 0.06169055 0.06536899
0002a0 39 e4 3b bd 01 8c 9e 3c 7e 46 1d 3d 39 c7 5a 3d
       -0.045871947 0.019353868 0.038397305 0.05341265
0002b0 e0 b1 4e bd f6 14 88 bd bc 89 94 3d a2 ca 4b 3d
       -0.050462604 -0.06644623 0.07252833 0.049753793
0002c0 6a dd ae bc f1 9c ee 3d 84 6a 1e bd 23 30 1e 3d
       -0.021345813 0.11651028 -0.0386758 0.038620126
0002d0 76 22 c8 3d 54 72 34 bd e3 ac 8e bd 74 ae 4e bd
       0.09772198 -0.044054344 -0.06966569 -0.05045934
0002e0 02 d2 97 3d 8d ec c0 bd f7 fd bf bd 06 b8 a9 3d
       0.07413103 -0.094201185 -0.09374612 0.08287053
0002f0 c1 6c 39 bb a3 c1 8b bd b7 3e 9f 3d f8 5b a3 bc
       -0.0028293582 -0.06824043 0.07775634 -0.019941315
000300 fc 85 0d bd 94 f1 a7 3c d7 5d a7 3d 27 42 8f 3c
       -0.034551606 0.020500936 0.081721954 0.017487599
000310 93 ca 88 bd a2 4f 6c 3d 28 43 21 bd 2b c7 da bd
       -0.06679263 0.05769313 -0.039370686 -0.106825195
000320 c2 bb ab 3d 6b 62 0d 3d 78 12 c5 bd a4 f1 7c 3b
       0.08385421 0.034517687 -0.09622663 0.0038596177
000330 02 1e f6 3b b8 79 35 bd 12 75 38 bd 64 1d f0 bc
       0.0075109014 -0.044305533 -0.045033522 -0.02931089
000340 df a0 e3 bd e8 83 81 3c 5f 80 05 bc 8b 9d 9b 3d
       -0.11114668 0.015809968 -0.008148282 0.07598408
000350 bc 66 bc bb b3 6b 4b 3b 92 12 5e bd eb 40 b4 3d
       -0.0057495516 0.0031039536 -0.05421693 0.088014446
000360 8b 6a 93 3d f4 4e 93 bc 3c 67 90 3d 17 1f 07 bd
       0.07198056 -0.017981984 0.070509404 -0.032988634
000370 b0 cb 7d 3d e5 b0 a3 bd 47 ad 3a bc e8 2e 91 bd
       0.06196183 -0.07992724 -0.011393852 -0.07089025
000380 d4 3c 89 bd e0 e9 38 bd e6 5e fa bc 3a 5a dd 3c
       -0.06701055 -0.045144916 -0.03056283 0.027020562
000390 f5 02 5e 3d b6 ee d0 3d 74 ea 53 bd 41 04 63 3c
       0.05420204 0.102017805 -0.051737264 0.013855995
0003a0 a3 0e d3 bb 44 59 89 bd 24 ff 54 3a 47 4b 26 bd
       -0.006440954 -0.06706479 0.0008125177 -0.040599134
0003b0 74 79 fd 3c ef 50 c4 3d 53 d8 ca 3d 9f c4 be 3a
       0.030941702 0.09585749 0.09904542 0.0014554447
0003c0 d9 07 be 3d 2f 9a a2 bd 26 3d a3 bd ab a8 a0 bd
       0.092788406 -0.079395644 -0.079706475 -0.07844671
0003d0 33 a8 76 3d aa 6b 28 3d 21 0e 96 bd 27 5b f4 3d
       0.060219 0.0411183 -0.073269136 0.119314484
0003e0 79 0a bb bd 34 8a 98 3b ae fd 9f 3c d2 dc 75 3d
       -0.09132857 0.004655147 0.019530144 0.060025044
0003f0 1a 2a 0d bc 81 99 97 3d 1b e1 7a 3b 05 35 52 3d
       -0.008615995 0.074023254 0.0038281146 0.051320095

linear2.bias f4 [128]
000000 1f 8b 08 bd 6c ab 8a bd 1a 48 5a 3d 06 e6 41 3c
       -0.0333358 -0.067709774 0.053291418 0.011834627
000010 5f 72 1c 3d a7 8d d2 3d be b1 8a bd 4a 6f 00 bd
       0.03819501 0.10280924 -0.06772183 -0.031356134
000020 25 7f a7 3c b3 e7 72 bd 67 0d 94 bd 14 95 62 3d
       0.02044637 -0.059302997 -0.07229119 0.055317953
000030 2b 68 6a 3d 47 88 5c 3d e4 ff cd 3d e2 cb 8a bd
       0.05722825 0.0538409 0.10058573 -0.06777169
000040 fd 59 ba bd 98 fd 11 bd 23 65 89 3b bd df c5 3d
       -0.09099195 -0.035642236 0.0041929646 0.09661815
000050 d5 99 c0 bd a4 40 88 3d 75 50 85 3b 8e b6 22 bc
       -0.09404341 0.06652954 0.004068429 -0.00993122
000060 04 28 bc bc 9d f9 bb 3c d3 f7 95 bd 83 a7 bb 3d
       -0.0229683 0.022946173 -0.07322659 0.0916281
000070 c5 ed a4 3d 07 94 fe 3b 6e b1 01 bb 35 f2 42 bd
       0.080531634 0.007769111 -0.0019789594 -0.047594268
000080 4b 11 89 3d af 3d af 3d 2b 72 70 3d df b1 9e bd
       0.066927515 0.08556687 0.05870263 -0.0774877
000090 19 05 34 3d 8a f7 84 3c cc c1 42 3c eb bc 84 3d
       0.043950174 0.016231317 0.011887025 0.06481346
0000a0 ca 0d c6 3d ec 2a 77 bd a8 fa cb 3d 69 4a bc 3d
       0.09670599 -0.060343668 0.09959918 0.0919388
0000b0 3a 8b 18 bd 82 91 27 bc 6a fc 80 3d 00 48 a3 bc
       -0.03724215 -0.010227563 0.06298144 -0.019931793
0000c0 d7 05 2c bc 90 38 00 3d 38 d9 01 bd b9 78 96 3d
       -0.010499439 0.031303942 -0.031701297 0.07347245
0000d0 91 ab 86 3d 79 08 17 bd ed 0d d5 3d b0 a5 97 bc
       0.065756924 -0.036873315 0.10403047 -0.018511623
0000e0 ef d8 b8 3d 93 b9 41 3c 91 cc 33 bd 19 fa bb 3d
       0.09025752 0.0118240295 -0.04389626 0.09178562
0000f0 c1 a7 92 3d 75 ad cb 3c 65 fc 8b 3d a4 5d 50 bc
       0.07160903 0.024862984 0.0683525 -0.012717638
000100 cb 79 06 bd 41 4f 5d 3b a9 4a 90 3d 8e ab 6e bd
       -0.032830995 0.0033769163 0.0704549 -0.058269076
000110 f6 d0 94 3c 18 bb af 3d cc d6 61 bd 7d 4b d4 bc
       0.018166047 0.08580607 -0.055136487 -0.025914902
000120 19 40 29 b8 9b 0f 2b 3d 96 d9 76 bd e2 f7 af 3d
       -4.0352435e-05 0.04176293 -0.0602661 0.08592202
000130 10 f3 65 3d 1d 2a 8c 3d a7 1f c8 3d d3 1e c1 bc
       0.056140006 0.0684397 0.09771662 -0.023574268
000140 84 28 83 bd 88 f0 8f bd 25 0d a1 3c e5 1b b4 3c
       -0.06404212 -0.070282996 0.019659588 0.021985957
000150 00 49 05 bd b7 3e 68 3c 85 0c 6a bc 75 7c 7e bd
       -0.03254032 0.014175109 -0.014285211 -0.06213041
000160 4c c5 8a 3d 16 6b 96 bd bd 4b 61 bd e3 d8 11 3d
       0.06775913 -0.07344644 -0.05500387 0.03560723
000170 cf 6d 27 3d 44 f9 6b bd 46 7c dc 3c 90 3f ba 3d
       0.040876206 -0.057610765 0.026914727 0.09094155
000180 ab 82 c3 bc 8b a6 ad 3d f2 7f 4b bc 74 d5 4e 3d
       -0.023866018 0.08479031 -0.012420641 0.050496534
000190 27 d3 83 3d ee 69 1b 3d 57 62 8a 3d 16 9f 9a 3d
       0.064367585 0.03794282 0.06757038 0.075498745
0001a0 66 ee ef bc df c2 d7 bb bf 7d 57 3d cc f0 36 3d
       -0.029288482 -0.0065845097 0.052610155 0.044663236
0001b0 aa cb b6 bc 6d c6 c0 bd 59 e5 1a bd d1 c3 98 3c
       -0.022313911 -0.09412847 -0.03781638 0.01864806
0001c0 0f 81 8b 3d 33 2c 97 3d e1 e1 c9 3d 8b 1c b5 3b
       0.06811725 0.07381477 0.09857536 0.005527084
0001d0 76 4b 92 bc f3 d6 3b 3d 41 cb a2 3d dd e1 c2 3d
       -0.017858248 0.04585929 0.07948924 0.09515736
0001e0 a9 1b 06 bc 59 6e 1c bd 00 ce db 3d a6 40 88 3d
       -0.008185306 -0.038191173 0.10732651 0.06652956
0001f0 b1 ad c1 3d bc e7 91 3d 2c c0 8b bd 47 31 4e bd
       0.09456957 0.07124278 -0.06823763 -0.050339963

linear3.weight f4 [128, 128]
000000 86 98 13 bd f2 b4 88 bd 0a 03 c0 3d cf 1d a2 bc
       -0.03603413 -0.066751376 0.0937558 -0.019789604
000010 6f 7f 8a bd 63 4c ef bb 30 40 d5 bd 7d dd 3f 3d
       -0.06762587 -0.007302807 -0.104126334 0.046842087
000020 6f ac 19 3d 32 12 ea 3c b9 bb 53 3b 0e 3f 09 bd
       0.03751796 0.02857313 0.0032307936 -0.0335074
000030 19 16 69 3d 35 d4 9c bd 80 aa 34 bd 9a f6 71 3d
       0.05690584 -0.07657663 -0.044107914 0.05907307
000040 d3 b1 9d bd 66 47 5a bd 27 78 a9 3d 54 e6 8a 3d
       -0.07699933 -0.053290747 0.0827487 0.06782213
000050 3d 98 52 3c b4 0f 02 bd f5 da 60 bd 50 40 2d bd
       0.012853679 -0.031753257 -0.054896314 -0.04229766
000060 01 7b be b9 02 c5 bc 3d 5c d2 eb bc 18 0b 71 bd
       -0.0003633127 0.09217264 -0.02878683 -0.05884847
000070 be 66 e1 3d 47 d2 88 bd ba 9e 82 3c 74 de 65 3c
       0.11005925 -0.06680732 0.015944827 0.014030088
000080 7b a3 95 3d 24 95 9d 3c 79 78 9e bc a2 c7 3a bd
       0.07306572 0.019236155 -0.019344555 -0.04560054
000090 33 7b 27 bc 09 9b 4d bb 5f a6 ae bb 92 9c 96 bd
       -0.010222244 -0.0031372926 -0.0053298916 -0.07354082
0000a0 55 90 b9 3d 09 ad 97 bd 61 0c d9 3d bd 26 bb bd
       0.09060732 -0.07406051 0.10598064 -0.09138248
0000b0 66 44 78 3d af ad fb 3d 6a ae 9b 3d 6e 15 25 3b
       0.060612105 0.12288987 0.07601626 0.0025189775
0000c0 4f db 96 3d e0 32 05 3d 28 30 24 bc 69 aa ca 3d
       0.073660485 0.03251922 -0.010021247 0.098957844
0000d0 47 35 a4 3c 2f 3c 0e 3e d7 83 1a bd 30 b3 15 3d
       0.020044936 0.13890146 -0.03772339 0.03654784
0000e0 d7 0a 4a bd 2a 01 9c 3d 6b 49 83 3d 6b 38 8f 3c
       -0.049326744 0.076174095 0.06410488 0.017482957
0000f0 f5 63 4c 3d 42 d2 05 bd 3d d5 40 3b 60 0a c9 bd
       0.049900014 -0.03267122 0.0029423975 -0.09816432
000100 79 b1 de 3c 04 d2 00 3c 33 e8 c6 3c 57 7f ec bd
       0.027184235 0.007862572 0.024280643 -0.11547726
000110 02 ec 4e bd 19 19 9e bc de c9 cb 3b a6 18 aa 3c
       -0.050518043 -0.019299077 0.006219133 0.020763706
000120 3d 74 d3 3d eb 69 45 bd 72 c9 65 bd 0c 5b 5a 3d
       0.10324905 -0.048196714 -0.056100316 0.053309485
000130 d0 78 d6 3d 7d d4 3b 3d 8f 31 b4 3d be 8c 92 bd
       0.10472262 0.04585694 0.08798515 -0.07155751
000140 0b f3 00 3e f0 2e 47 3b c5 0f 89 bd a9 02 cc bd
       0.12592714 0.0030392967 -0.06692461 -0.09961445
000150 8f 85 39 3c a3 af c6 bd 90 9d 7c bd 74 12 7f bd
       0.011323347 -0.09701469 -0.0616737 -0.062273458
000160 05 76 7d 3d c7 d1 2d bc 7b 5d e5 3d cc 6d bd bd
       0.06188013 -0.010609097 0.111994706 -0.09249458
000170 e8 8a 3f 3d b0 26 ac 3d cd 63 c7 3d 93 7b b8 3d
       0.04676333 0.084058166 0.09735832 0.09007945
000180 66 af 82 bc 7a a2 7c 3d 32 29 f8 3c 7d ef c8 3c
       -0.015952777 0.061678387 0.030293081 0.02452826
000190 03 b5 92 bc 7e df 86 bc bf 4d 31 bd 30 e3 ea 3c
       -0.017908579 -0.016463991 -0.043287035 0.028672785
0001a0 cf 2d f5 3c f8 4c ef bb a8 65 c3 3d 94 af ff bc
       0.02992907 -0.0073028766 0.09540874 -0.031211652
0001b0 9e 16 a4 3c 2e 5f 08 3e 01 14 eb 3d 53 d0 e4 3d
       0.020030316 0.13317558 0.11478425 0.11172547
0001c0 6e bf 67 bd 80 ba 9e bd d1 dc 8a 3d 50 b3 89 bc
       -0.056579046 -0.07750416 0.06780399 -0.016809136
0001d0 88 11 ab bc 57 7c 30 bd 6a 94 f2 3c fb 12 c9 3d
       -0.020882383 -0.04308733 0.029611785 0.09818073
0001e0 47 66 4a bd 0b 6b c6 bd 37 6b 80 3c 50 07 3d 3d
       -0.049413946 -0.096883856 0.015676124 0.046149552
0001f0 be 26 36 bb 95 01 fe 3c fa d5 5a bd 58 7e a0 3d
       -0.0027794088 0.031006614 -0.05342672 0.07836598
000200 c6 ad e8 bd 20 95 1a 3d 5f 6b 03 3c 2c 6c 75 bd
       -0.1136127 0.037739873 0.008021205 -0.059917614
000210 1c cc 89 bd 4d 41 0e bd 1e 5d 70 bc cf c3 a8 bd
       -0.06728384 -0.034730244 -0.014670638 -0.082404725
000220 28 a3 5a 3c cc e0 2d bc 42 68 b1 3d 95 6a 08 bd
       0.013344564 -0.010612678 0.08662464 -0.03330477
000230 f5 1a d4 bc ad 6e 69 3d 39 5b 8e 3c 70 8e 76 3c
       -0.02589176 0.056990314 0.017377483 0.015048608
000240 04 04 da 3b 79 a4 e4 3b 4a 87 7b 3d 38 9a 31 bd
       0.0066533107 0.0069776145 0.06140832 -0.043359965
000250 68 13 8b 3d 98 be 75 bd a9 d7 b5 bd 4e 62 57 3d
       0.06790811 -0.059996217 -0.088790245 0.052583985
000260 d4 0a f1 bb f0 01 78 bc 72 a3 ba 3b ee 48 91 3d
       -0.007356027 -0.015137181 0.0056957537 0.07093988
000270 c9 ce 18 3d a8 01 32 3d 3f 81 57 bd 73 aa 42 3c
       0.03730658 0.04345861 -0.052613493 0.011881459
000280 4e 23 91 bd e7 38 77 3d 6e 26 22 bd c0 75 f8 bb
       -0.07086812 0.060357 -0.03958743 -0.0075823963
000290 12 fd 8e bd 56 45 d0 bc 5e b7 a6 bd ba 74 c0 bc
       -0.06981863 -0.025423687 -0.08140443 -0.02349316
0002a0 9c 5e 86 bc 22 f8 b6 bd 12 02 74 3d 38 93 a9 bd
       -0.016402535 -0.08934046 0.059572287 -0.08280033
0002b0 f6 e7 9b 3d ab fb 7a 3d 97 a8 a2 bb 46 0c 03 3d
       0.076126024 0.061275166 -0.004963945 0.031994127
0002c0 d2 f6 53 3d 29 1e 47 bd e6 f9 56 bd bd 48 84 3d
       0.051749058 -0.048612747 -0.052484415 0.06459186
0002d0 e9 8e 13 bd 65 f8 84 bd 63 3c a8 3d 57 b2 cb 3b
       -0.03602496 -0.0649269 0.08214643 0.006216328
0002e0 d2 7b 41 bd db 08 67 bd f5 62 88 3d ca 5c b0 3c
       -0.047237225 -0.05640493 0.066594996 0.02152862
0002f0 7a 9b 11 bd ab 80 0f bd 40 ef c5 bd c0 88 66 bb
       -0.035548665 -0.035034817 -0.09664774 -0.0035176724
000300 e4 e1 04 be 16 ac 59 3d 19 71 11 bd c6 df 36 3c
       -0.12976795 0.05314263 -0.03550825 0.01116175
000310 09 0f e5 3c 80 ed 08 bd c1 f0 90 bd 77 f0 df bd
       0.02796127 -0.033429623 -0.0707717 -0.10934537
000320 5a 50 b4 bd 10 2b 9e 3d cc e7 01 3e a8 9a 8b bc
       -0.08804388 0.07723057 0.1268608 -0.01704152
000330 d0 fe 84 bd a4 b9 73 bd 55 d5 3b bd 33 e1 97 3c
       -0.06493914 -0.059503213 -0.045857746 0.01854
000340 70 e8 56 3d 68 0e 67 bc cd 60 9c 3d fc 7e f4 b9
       0.052467763 -0.014102556 0.07635651 -0.00046633917
000350 11 ac 0a be ae 0b ac bd b0 52 11 bd d1 01 a8 bd
       -0.135422 -0.08400665 -0.035479248 -0.082034715
000360 76 b7 9f bd ff 79 97 bd bb cd 67 bc fc 0a 5a 3d
       -0.07798664 -0.07396316 -0.014148171 0.05323313
000370 33 c9 93 3c 6f 3a a7 3d 4c 52 7a 3c 1d 57 ec bc
       0.018040275 0.08165442 0.01527841 -0.028850133
000380 40 cd e7 bc 60 a8 29 bc 16 bf 97 bd 75 a9 a5 bd
       -0.028296113 -0.010355085 -0.074094936 -0.08088962
000390 9f 77 81 bc 44 d5 50 3c 2a e1 b4 3c f7 ea 61 3d
       -0.01580411 0.012746159 0.022080023 0.05515572
0003a0 6b 38 03 3d df a9 0b 3d ca 58 b6 bd 96 a2 47 3d
       0.032036226 0.03409755 -0.08903654 0.04873904
0003b0 16 d9 c4 3d b8 ba 9e bd 8f c6 06 3d 75 0a e7 bc
       0.09611718 -0.077504575 0.032904204 -0.028203228
0003c0 0d ee 9e bc 84 89 c2 3d df 45 da bc 5b 40 de bc
       -0.01940062 0.09498885 -0.026644645 -0.027130296
0003d0 77 83 8e 3d 4c 98 cd bc c6 cb da bd 2d 82 a6 bb
       0.06958669 -0.025097035 -0.10683398 -0.005081436
0003e0 f5 df b7 bd 02 f1 e8 3c c8 d0 e9 ba 24 2b 03 3d
       -0.08978263 0.028435234 -0.0017838711 0.032023564
0003f0 ad 23 58 3d 08 60 8b 3d ae 72 be 3b e7 b9 ab 3d
       0.052768398 0.06805426 0.0058120107 0.083850674

linear3.bias f4 [128]
000000 94 31 9a 3a 29 31 46 3d 5e 73 26 3c d7 c7 73 bd
       0.0011764043 0.048386727 0.010159342 -0.059516754
000010 4b 06 bf 3d c2 12 56 bd 4f 0e c3 3c 4e 40 4f bd
       0.09327372 -0.052263983 0.023810534 -0.050598435
000020 1d f9 a6 bc 5c 11 4e 3d 36 68 90 bd 8f 83 1e bd
       -0.020382458 0.050309524 -0.07051127 -0.038699683
000030 e1 eb ef 3c 78 59 76 bc 58 35 53 bd cb e2 5a 3d
       0.02928728 -0.015035979 -0.051564544 0.053438943
000040 1b 69 b0 3b ee 82 82 bd b1 d8 91 3d 65 71 49 3d
       0.0053836233 -0.06372629 0.07121409 0.049180407
000050 73 b6 90 bc 6c 8d ab bc 59 ea 3f bd e8 28 27 bd
       -0.017665124 -0.020941459 -0.04685435 -0.040810496
000060 04 13 e4 bc 2b b0 a9 3d a2 0c 94 bd a7 ad ee 3c
       -0.027841099 0.082855545 -0.07228972 0.029135538
000070 df d0 77 3d b5 51 17 bd 70 99 c7 bc b0 24 36 bd
       0.06050193 -0.036943156 -0.024365157 -0.04446858
000080 51 da 86 3d 07 ac 31 3d 57 74 42 3d a1 ac b7 bd
       0.06584609 0.04337695 0.04747423 -0.08968473
000090 fb 6f bf 3d 93 35 2e bc a0 ac ca 3c 27 3c 20 bd
       0.093475305 -0.01063289 0.024740517 -0.039119866
0000a0 c4 f7 83 bc 13 ae 95 3d 6f 2c b9 3d 07 79 99 3d
       -0.016109355 0.07308593 0.09041678 0.07493787
0000b0 90 30 b1 bc b5 c7 4c bc 03 ef 44 3d f1 3f 33 bd
       -0.021629602 -0.012498786 0.0480795 -0.04376215
0000c0 41 e7 50 bd 05 3c 69 bc fc 90 41 bd 43 bf fe 3c
       -0.05100179 -0.014235501 -0.04725741 0.03109706
0000d0 28 39 c0 3c 19 52 05 3c fd bc a1 3d 92 e6 bb bd
       0.023464754 0.008137249 0.07897375 -0.09174837
0000e0 b2 c8 11 3d f0 e5 8b 3c 05 51 80 3d 9b 44 1c bd
       0.03559179 0.017077416 0.06265453 -0.038151365
0000f0 3f 66 53 bd 35 6f 8d 3c f3 3a ad bc 41 db dd 3c
       -0.05161118 0.017264942 -0.021146273 0.027082087
000100 67 27 f3 bc 09 3c 6c bc 4f 0f bc 3c 4f 41 34 bc
       -0.029681874 -0.01441861 0.022956518 -0.011001899
000110 64 7c 08 3c 2b 6c af ba 6f 6b 9f 3d b4 66 0f 3c
       0.008330438 -0.0013383677 0.07784163 0.008752514
000120 47 9f 88 bd 50 a8 9c 3d 08 38 4f 3d a0 4d 6d bd
       -0.06671005 0.076492906 0.050590545 -0.057935357
000130 0a c7 ad bc 70 e0 e4 bb 03 10 90 3d 48 25 a5 bd
       -0.021213073 -0.006984763 0.07034304 -0.080637515
000140 74 b9 1d bd 64 54 86 bd 85 a3 6f bd 8f 2f ee bb
       -0.03850694 -0.06559065 -0.058505554 -0.007268853
000150 de 86 82 bd 94 40 c2 bb df 90 4a 3d c4 33 79 3d
       -0.0637338 -0.0059281085 0.049454566 0.060840383
000160 39 0a 93 bd 06 59 6b 3b 96 47 96 bc 93 27 3e 3c
       -0.07179684 0.0035911216 -0.018344682 0.011606115
000170 0a b5 a3 bd c0 b5 a6 3d 38 7c 7d 3d 62 00 1e 3d
       -0.07993515 0.08140135 0.061886042 0.038574584
000180 8c cd 2f 3d bd 94 2d 3a 97 33 36 bd 4d 00 24 bd
       0.042920634 0.000662159 -0.044482794 -0.04003935
000190 62 a3 18 3d 10 fe c6 bc 2c d7 08 bd cb 8f 4e 3b
       0.03726519 -0.024291068 -0.03340833 0.0031518813
0001a0 1f 2e 93 3d 8a d7 04 bd 80 43 cb 3d bc e8 b4 3d
       0.07186531 -0.032432117 0.09924984 0.08833453
0001b0 ca 47 8e bd 30 5c ac bc 5a d6 52 3d 17 58 f5 bc
       -0.069472864 -0.021040052 0.051473953 -0.029949231
0001c0 67 7c ff 3c 29 4d 92 bd c3 2c 80 3c 1b 0f 8f 3d
       0.03118725 -0.071436234 0.015646344 0.06985303
0001d0 03 0a 1c 3d be fc 9c bd c3 de 4b 3d 66 ac 87 3c
       0.038095485 -0.07665394 0.04977299 0.016561698
0001e0 fe 6d aa bd b5 01 fb bc c3 3d 24 3d 01 e3 1f bd
       -0.083217606 -0.030640462 0.040097963 -0.039034847
0001f0 87 a0 0b bc 0a b3 34 3d 05 a2 18 bd 16 a5 7e 3d
       -0.008522159 0.044116057 -0.03726389 0.062169157

linear4.weight f4 [60, 128]
000000 f6 e7 a0 bd 4f 84 d1 3b 16 ae 62 3c 04 cf a8 bd
       -0.07856743 0.0063939462 0.013835451 -0.0824261
000010 2c 02 b0 bd 2c b6 dc bc ab 85 b0 bd b3 d4 8f 3c
       -0.08594164 -0.026942335 -0.08619245 0.017557478
000020 fe 18 b4 3c 04 2f 18 3d 78 d5 c0 bd a7 43 bc bd
       0.021984573 0.037154213 -0.09415716 -0.09192591
000030 e7 23 e0 3c ef 87 d9 3d ba 8d f6 3c 6d 5f 6b 3c
       0.02736087 0.106216304 0.030096877 0.014366013
000040 00 f1 a1 3d 6d a2 33 3d 4d 23 4d bd db 1c c1 bd
       0.07907295 0.043856073 -0.050082494 -0.09429332
000050 53 fc 67 bd 33 f5 3e 3c 50 c8 02 bd a0 e1 4c bd
       -0.05663712 0.01165514 -0.031929314 -0.05001986
000060 d5 5e 2f bd 0e 7e c4 bc 91 9f 6b bc f5 c6 d7 bd
       -0.04281505 -0.023985889 -0.014381305 -0.10535995
000070 82 e4 22 3c 40 a8 c7 3d af 1e 75 3d 7f e9 1d bc
       0.009942176 0.09748888 0.059843715 -0.009638189
000080 7d 15 2c 3b 90 64 16 bd b9 8a e9 3d a9 f9 81 3d
       0.0026257925 -0.036716998 0.11403412 0.06346447
000090 91 fc 91 bd d7 dc 9c bb 37 0d 8a bd fe e6 c1 bd
       -0.07128251 -0.0047870683 -0.06740802 -0.094678864
0000a0 29 b8 e5 bd 08 3f 55 bd 88 a9 06 3d 8d 8b ca bd
       -0.112167664 -0.052062064 0.03287652 -0.098898984
0000b0 de 08 8e bc 07 33 01 3d fa 25 36 bc 59 7e 50 bd
       -0.017338213 0.031542804 -0.011117453 -0.050901745
0000c0 1e 13 b0 bc bc 7d ce bc 47 8d 42 3d af f1 03 bd
       -0.02149349 -0.02520644 0.047498014 -0.03221291
0000d0 0a f0 9b 3c cf 7e 76 3c f3 b0 91 3b 3d 1b 75 bd
       0.019035358 0.015044882 0.004446143 -0.05984043
0000e0 2b a0 bd bc 46 35 77 bd c3 2b 9b bd b4 75 85 3c
       -0.023147663 -0.06035354 -0.07576706 0.016291477
0000f0 24 22 c8 3d 6f c6 41 3d 78 10 a2 3d 48 0d 0c 3d
       0.09772137 0.04730838 0.079132974 0.034192353
000100 ff 38 00 3d c8 50 ff 3c 9e d9 b5 bb 2a 1e 99 bd
       0.031304356 0.03116645 -0.0055496236 -0.074764565
000110 95 12 02 bd 3e 69 1d 3d c5 36 e9 bc 8f bb 28 3d
       -0.031756002 0.038430445 -0.028468499 0.041194495
000120 22 91 8a bc d0 c1 30 bd a3 ae 32 3d 8f 73 84 3d
       -0.016914908 -0.043153584 0.043623578 0.064673536
000130 82 ea da bd cc 14 e9 bc 3a 1b 78 3d 70 10 a1 3d
       -0.1068926 -0.0284523 0.06057284 0.07864463
000140 9f d6 b4 bd d5 46 cd 3d a4 1f 81 3c 3c 90 d8 bc
       -0.08829998 0.10023276 0.015762158 -0.026435964
000150 3c f3 77 bc 94 bb 18 3d 46 b5 26 bd 75 1a 70 bd
       -0.015133675 0.037288263 -0.04070022 -0.05861898
000160 12 16 c3 3d 16 0b 0f bd e2 1c cc 3c ba 88 ca 3d
       0.09525694 -0.03492268 0.024916116 0.0988936
000170 36 1c b1 3b 77 76 14 3d 75 f0 69 3d f4 b7 73 3d
       0.0054049743 0.03624579 0.057114083 0.059501603
000180 42 c8 59 bd e6 d1 d8 3c fa 52 86 bc 54 db 55 bd
       -0.053169496 0.026467275 -0.016396988 -0.05221112
000190 aa ad 95 bb 8b b1 92 bd 3c c9 91 bd 4b 1f f6 bd
       -0.0045678215 -0.0716277 -0.071184605 -0.120176874
0001a0 52 a0 ca 3b a5 ed 35 3d eb 0b a2 3c 68 14 34 3d
       0.0061836625 0.04441609 0.019781074 0.043964773
0001b0 07 70 d3 3c dd 4c 8a 3d 4f 36 16 3d 96 bd 18 bd
       0.025810255 0.06752942 0.036672886 -0.03729018
0001c0 3b 17 80 bd 7b 4a 01 3d 01 1e 20 3d 4f a3 47 3d
       -0.06254431 0.03156517 0.039091114 0.048739728
0001d0 89 02 18 bd e5 8d 0d bd 87 ed c9 bc 96 4d 2e bd
       -0.037111793 -0.03455915 -0.024649395 -0.04255446
0001e0 2d 42 35 bd 07 37 82 3d 5d e6 39 3d 61 3e 26 bc
       -0.044252563 0.06358152 0.045385707 -0.010146708
0001f0 8e 98 3e 3d 5e 0f 23 3c e0 28 df bd fa 73 2a 3d
       0.046532206 0.009952394 -0.10896468 0.04161451
000200 3a 18 e1 bc 33 30 07 bd a6 f9 f1 3c 3a 51 27 bd
       -0.027477372 -0.03300495 0.029537987 -0.040848948
000210 1a 9a 8b bd ee 79 a8 bd e3 de ac 3d 64 46 9c bd
       -0.06816502 -0.08226381 0.0844095 -0.076306134
000220 83 df 7e 3c b9 11 82 3d bd 90 10 3d 4b 0a 62 3d
       0.015556219 0.063510366 0.035294283 0.055185597
000230 99 ec 87 3d 71 9b 8a 3d ab e5 7b 3d 84 19 d2 3d
       0.06636924 0.06767929 0.061498325 0.10258773
000240 04 6b 3e 3d 4f fd e6 3b 3d 00 ef 3b c1 9f 4c bb
       0.046488777 0.0070492397 0.0072937296 -0.003122315
000250 1b 38 5f 3d b3 db 16 bd 9c 45 41 3d d9 b1 26 3d
       0.054496866 -0.036830615 0.047185525 0.040696952
000260 de 3a 16 3c 27 56 14 3d da 04 d5 3b 3e fa 73 3d
       0.0091693085 0.036214974 0.0065008225 0.05956482
000270 b1 ca 76 bb f4 40 2e 3c 14 a7 c7 bd b1 86 74 3d
       -0.0037657435 0.010635603 -0.097486645 0.059698764
000280 d8 7f c0 bd ba ff 4c bd 53 c5 81 bd 58 62 8d bd
       -0.09399384 -0.050048567 -0.06336465 -0.06903523
000290 82 f4 9f 3d ae a9 c7 bc 98 df 85 bc 41 4f 9c bd
       0.07810308 -0.024372902 -0.01634197 -0.07632304
0002a0 64 6f bd 3c a1 49 52 bc 0f bd a3 bc 7b b2 0c 3d
       0.023124404 -0.012834937 -0.019987611 0.0343499
0002b0 42 d9 7c 3d fc 5c 6e 3d ff ef 90 bd da 51 0c 3c
       0.06173063 0.058194146 -0.070770256 0.008564437
0002c0 00 7e 33 3d b9 df c6 bd 0c 23 3c bd 33 70 84 3c
       0.043821335 -0.097106405 -0.04593186 0.016166782
0002d0 e0 c3 d7 bd 6b 8a c9 3d b4 2f b1 bd e5 cb 98 bd
       -0.10535407 0.09840854 -0.08651677 -0.07460765
0002e0 e1 44 b6 bd e7 bd 84 3c 40 7d 60 bd b5 66 c0 3d
       -0.08899856 0.016203834 -0.054806948 0.0939459
0002f0 b5 5b be 3d 38 e4 1c bd 95 3c 08 3d f6 5b 48 3c
       0.092948355 -0.038303584 0.0332609 0.012228956
000300 05 59 4c 3d 5c 95 5a bd e6 67 fd bc ec 01 a5 3d
       0.049889583 -0.053365096 -0.030933332 0.08057007
000310 cc 60 97 3c 12 8d 96 bd 22 01 2a bd 32 85 1c bd
       0.018478774 -0.07351126 -0.041504987 -0.038212962
000320 85 92 fe bc eb af a6 bd 78 ea 2e bd d2 80 ea ba
       -0.031075725 -0.081390224 -0.042704076 -0.0017891175
000330 f8 99 19 3d 6a 1a c7 bd 52 04 15 3d 1e b3 65 bd
       0.03750035 -0.09721835 0.036381073 -0.056079023
000340 24 18 63 3d 8f bb 67 bc 64 16 dc 3b 33 fc 77 3d
       0.055442944 -0.014143839 0.0067165364 0.06054325
000350 bd 65 47 bd b5 b1 cb 3d 18 e7 18 bd b4 52 cb 3d
       -0.04868101 0.09946004 -0.037329763 0.09927884
000360 01 68 0d 3d 9c bc 1b 3b 40 db c3 bc 24 6c 66 bc
       0.034523014 0.0023763543 -0.023908257 -0.014063869
000370 c4 37 56 3c 15 bd 90 bd 7d ca 2e bd e2 8f 0e 39
       0.013074819 -0.070673145 -0.042673577 0.00013595776
000380 49 a1 e6 3d c7 13 3a 3d b9 0b 52 3c 24 5e 62 3d
       0.112612315 0.045429017 0.012820178 0.05526556
000390 18 44 ed bc 90 eb 8c 3c 55 10 a9 bd fe a2 12 bd
       -0.028963134 0.017202169 -0.08255068 -0.035799973
0003a0 86 28 8d 3c f2 cd 7c bd 65 51 e2 bc ab dc 77 bd
       0.017231237 -0.061719842 -0.027626703 -0.06051318
0003b0 34 4e 27 3d be 0a c1 3d 1c c9 56 bd fb 00 94 bd
       0.040846065 0.09425877 -0.052437887 -0.072267495
0003c0 ee d3 96 3d 71 b0 4a 3d 0c 9c c7 3c f4 87 1d bd
       0.07364641 0.049484674 0.024366401 -0.038459733
0003d0 a6 f0 d5 bd 11 a8 7a 3d c4 d9 3b 3c a5 60 3b bc
       -0.10446291 0.061195437 0.011465494 -0.011436616
0003e0 81 91 c6 3d 4a 59 8b bd 91 a8 7b 3b 43 fa 61 3b
       0.096957214 -0.0680414 0.0038400034 0.0034481443
0003f0 c4 63 82 bd 82 5a 87 bc 43 f6 78 bd a8 7d 71 bd
       -0.06366685 -0.01652265 -0.06078173 -0.058957726

linear4.bias f4 [60]
000000 1e 75 80 3b 56 a0 bb bd b4 01 40 3d 6f 73 bc bd
       0.0039202115 -0.09161441 0.046876624 -0.09201705
000010 df e9 92 3d 95 ce 31 3d 6a 23 60 bd 9e 7c 7f 3d
       0.071735136 0.043409903 -0.054721273 0.062374704
000020 ee e9 59 bd c8 2c 15 3d ec 5c 92 bd 7c 72 c0 3d
       -0.05320161 0.03641966 -0.0714663 0.09396836
000030 b5 75 a9 3d 8c 0c 31 bd 9f f1 ab 3d a1 1e 97 3d
       0.08274404 -0.043224856 0.08395695 0.07378889
000040 98 4d 3f bd 42 a8 a3 bd d1 fc 94 3d 64 8f b1 3d
       -0.04670486 -0.07991077 0.072747834 0.08669928
000050 1b 3c 9c 3c 32 dc 6d bc 4a a1 50 3d 33 09 a4 bb
       0.01907163 -0.014517831 0.050935067 -0.0050059794
000060 be 52 75 bd 88 3b 53 3d 70 aa 16 bd bf b8 37 3d
       -0.059893362 0.051570445 -0.036783636 0.044853922
000070 ce ad 5f bd 7d 71 ab 3c da ce 71 bd 77 04 99 3d
       -0.054609112 0.020928139 -0.05903516 0.07471555
000080 e9 a9 df 3c 50 71 94 3d a7 2a 9e 3c 02 6d 69 3d
       0.0273027 0.07248175 0.019307448 0.056988724
000090 85 c2 28 3d 3c 8b dd 3c 7b f9 a0 bd 67 57 b5 3d
       0.041201133 0.027043931 -0.078600846 0.08854561
0000a0 d5 f8 0c bd 6e de 26 3d e3 b9 36 bc 2b 73 54 bd
       -0.034416992 0.04073947 -0.011152717 -0.051867645
0000b0 15 58 10 3d 68 65 ab 3d 6c 95 b4 bc 82 ef 84 bc
       0.03524025 0.08368951 -0.022043906 -0.016227487
0000c0 6c 37 53 3d a5 1a 35 3d 8b 02 ad 3d 78 78 cf 3c
       0.051566526 0.044214863 0.08447751 0.025325999
0000d0 ed 9b 53 bd c7 e2 8a 3d a2 0a ab bd f4 64 2b 3c
       -0.051662374 0.067815356 -0.083516374 0.010461081
0000e0 b1 67 cc bd 46 51 16 bd 93 87 8b bd 26 ea dc bc
       -0.09980715 -0.036698602 -0.06812968 -0.02696712
