linear_nn.pth (torch, 169379 bytes, 8 tensors)

linear1.weight f4 [128, 6]
000000 0a 0f ed 3e c3 dd 3f 3e dc 99 dc be 20 12 33 3e
       0.46300536 0.18736939 -0.43086135 0.17487383
000010 c4 b5 da be df 96 b0 be 20 0e 7e be d3 9e d1 be
       -0.427168 -0.34490106 -0.24810076 -0.40941486
000020 d3 35 84 be 30 8e 91 3e bb 34 8a be 13 a7 04 bf
       -0.25822315 0.28428793 -0.26993355 -0.51817435
000030 16 37 a9 bd f2 cb bf 3e a8 08 a4 bd 70 10 ec 3d
       -0.0826246 0.37460285 -0.080094635 0.11526573
000040 a2 f6 b6 be 65 d6 b0 3e 9c ab a4 3e 11 1e db be
       -0.3573504 0.3453857 0.32162178 -0.42796376
000050 67 3d ca be 57 27 d9 3e be e7 8b 3e 0d 92 9d bd
       -0.3949997 0.42412826 0.27325243 -0.076938726
000060 52 4b 0e be d1 61 a0 3e 37 d8 fd 3c 3b a0 4b 3d
       -0.1389592 0.31324628 0.030986888 0.049713355
000070 1d 05 f6 3d 10 f5 ec 3e 06 53 c9 3e da a3 02 bf
       0.12012694 0.46280718 0.39321154 -0.5103127
000080 8e 5d c9 3e ff 62 b7 3e bb 86 e5 3e 26 40 bf 3e
       0.3932919 0.35817716 0.44829354 0.3735363
000090 73 bd 21 bd 19 65 24 be 98 ba a4 3d ee 42 8e bd
       -0.039487313 -0.1605419 0.080434024 -0.069463596
0000a0 98 a9 7a 3e 66 7d 79 3e dc 9a d1 be d5 63 9c 3e
       0.24478757 0.24364242 -0.4093846 0.30544916
0000b0 33 71 31 b9 7f 74 bf be 4a 21 ae 3e ca b3 c5 3e
       -0.00016922205 -0.37393567 0.34009773 0.3861373
0000c0 a5 52 41 be 75 d3 e3 be 38 17 09 3f 49 ee ea be
       -0.18879183 -0.44497266 0.53551054 -0.45884922
0000d0 3b 2e 64 3c 42 65 aa 3e 6c 23 a8 3e f5 f7 9f 3d
       0.013927038 0.3328038 0.32839525 0.07810966
0000e0 cd b3 96 3e aa 47 97 3b 1f dc b5 be 3e 17 81 3e
       0.29434052 0.0046166973 -0.35519502 0.25213045
0000f0 7b cc 0e 3e a2 39 9e 3e f5 58 cc be 26 0e de 3d
       0.1394519 0.30903345 -0.3991162 0.10842542
000100 37 57 cc be 62 46 b5 3e 96 59 17 3e 62 5b 17 3e
       -0.3991029 0.3540526 0.14780268 0.14780954
000110 f7 cb 85 be 65 cf f8 be ec 75 6d 3e dc 31 7b 3e
       -0.26132175 -0.4859573 0.23189515 0.24530739
000120 ab 43 f1 3e b4 ae 82 be 1f d0 b7 be 93 69 b5 bd
       0.4712194 -0.25523913 -0.3590097 -0.08858027
000130 a9 b2 c1 be 15 28 d4 3e bb e6 8a 3e 46 24 ce 3e
       -0.3783162 0.4143683 0.27129158 0.4026205
000140 3b dc bf 3d 2d 05 af bd b5 11 81 3e c0 81 97 3e
       0.093681775 -0.08545909 0.25208822 0.2959118
000150 81 d8 92 3e 00 71 4c 3e 9d e5 f8 be 9c 5a 56 be
       0.28680804 0.19964981 -0.4861268 -0.20933002
000160 5b f6 87 3d df 6b 55 3e 4d c2 c7 3d a9 cf cf be
       0.066387855 0.20841931 0.09753857 -0.4058812
000170 04 05 fa 3e cf 0b d4 ba c7 21 47 3e b1 9f d0 be
       0.48831952 -0.0016177836 0.19446479 -0.40746835
000180 9f 89 94 bc 92 b8 ba 3e ad 39 7d be 32 12 00 be
       -0.01813203 0.3646894 -0.24729033 -0.12506941
000190 21 3b 22 3d e7 ec cd 3e 9e b8 e4 be 27 3a c2 bd
       0.03960717 0.40219805 -0.44672102 -0.09483748
0001a0 b0 7f b4 3e 84 2f a3 be 86 0d c1 3d 13 0b 1e bd
       0.35253668 -0.3187219 0.094264075 -0.03858478
0001b0 31 ef d3 3d 15 30 6c be a7 6f f6 bd e6 c0 11 be
       0.103483565 -0.23065217 -0.12033015 -0.14233741
0001c0 38 e9 a6 be 26 82 e2 be 52 9b e4 bc 9d 1a be be
       -0.32599807 -0.4423992 -0.027906094 -0.3712968
0001d0 8c 88 96 3e 5a 45 20 3f d2 46 20 bf 08 af 6e be
       0.29401052 0.6260582 -0.62608063 -0.23308957
0001e0 6c b8 d9 be 3d 16 77 3e 98 8d d9 3e c1 b4 92 be
       -0.42523515 0.24129577 0.4249084 -0.2865353
0001f0 6b c0 d9 be 9f c1 d9 be 4b 90 0f bf dd dc de 3e
       -0.42529616 -0.42530534 -0.5607955 0.4352788
000200 78 0d fd 3c 67 41 73 3e 54 a3 28 bd b7 f0 8d be
       0.030890211 0.23755418 -0.041171387 -0.27722713
000210 25 60 84 be d5 3c 67 be 5e d7 b0 3e 77 da 1b 3f
       -0.25854602 -0.225818 0.34539312 0.60880226
000220 66 fe c1 3e 43 3d f5 3e 84 20 da 3a 46 04 22 bc
       0.37889403 0.478983 0.001664177 -0.009888714
000230 50 ca 39 bd d8 7f 83 3e 28 34 50 bd 29 99 a4 3d
       -0.045358956 0.25683475 -0.05083099 0.080370255
000240 c2 24 72 be 6a 61 8e 3e 5b fc 66 be 34 ee 00 3f
       -0.23646834 0.27808696 -0.22557203 0.5036347
000250 f7 54 a4 be 4c f2 11 bf e1 a4 e6 be 50 ca e6 be
       -0.32096073 -0.5701034 -0.45047668 -0.45076227
000260 1f d2 5e 3e 3a ed e5 be f6 c8 ce 3e f0 7d cf 3e
       0.21759842 -0.44907552 0.40387696 0.4052577
000270 ca ff 65 be 5c 6e a8 3e 35 59 bc 3e bc c8 d6 be
       -0.22460857 0.32896698 0.3678681 -0.41950023
000280 f1 4c b9 be d8 62 bc 3e 6f 3c f2 3e 82 40 59 3c
       -0.36191514 0.36794162 0.47311732 0.013260009
000290 92 d1 c5 3e ae 4c af 3e f8 74 b7 3d c8 76 b3 be
       0.38636452 0.3423819 0.08957857 -0.3505156
0002a0 35 d2 f5 bd aa 52 81 be f5 23 69 3e e3 ad 0b 3f
       -0.120029844 -0.2525838 0.22767623 0.54562205
0002b0 c3 49 8e 3e 15 8b c6 be 7b 7c 31 3e a0 92 b6 be
       0.2779065 -0.38777986 0.17332642 -0.3565874
0002c0 95 f5 21 be c2 69 ac 3e 0a b6 9c 3d 43 66 a7 3e
       -0.15816338 0.33674437 0.07651909 0.32695207
0002d0 41 ec a7 bd 49 6f 8f 3e 08 30 a0 3e d7 5b 66 3e
       -0.08199359 0.2801459 0.31286645 0.22495972
0002e0 8e df 95 3e e7 1d a1 3e bb 59 05 bd 15 80 49 3c
       0.2927212 0.31468126 -0.032556277 0.012298604
0002f0 74 6f dc be 55 00 9e be 80 23 e8 3e 4e 9e e6 3e
       -0.43053782 -0.30859628 0.45339584 0.45042652
000300 82 f8 c5 3c 88 23 e6 3e a3 32 45 3e ce 91 60 be
       0.02416635 0.44948983 0.19257598 -0.2193062
000310 74 98 08 3f 36 ca 83 be 36 98 d9 3e 89 2f 89 be
       0.53357625 -0.25740212 0.4249894 -0.2679408
000320 3a 43 bd be f4 b9 d1 3e ae 7a 8b bb 54 77 40 bd
       -0.36965352 0.40962183 -0.004256568 -0.0469888
000330 2f 13 47 be 0a cf ac 3e ca ea 30 3e e6 ec d0 3e
       -0.19440912 0.33751708 0.17277065 0.4080574
000340 75 03 b1 3e ba ca 27 be ab 98 ca 3e c4 14 8f bd
       0.3457295 -0.16385928 0.395696 -0.069863826
000350 0e 19 c3 be 47 f0 a6 3e 15 71 6e 3c 02 26 ae 3d
       -0.38105053 0.32605192 0.014553328 0.08503343
000360 67 12 9d 3e e4 48 7f 3e c6 4e 07 3d b7 b1 d1 3e
       0.30678102 0.2493015 0.03303411 0.40955898
000370 4e 61 8d 3e 4c 9d cf 3b 08 48 b7 be ad 4e d6 3d
       0.276133 0.00633589 -0.35797143 0.10464225
000380 a9 e5 cf 3e f3 0a 5e 3d 10 1b 82 bd e0 96 1b 3e
       0.40604904 0.05420966 -0.06352818 0.15194273
000390 43 75 31 bd 1e 90 c4 3e 68 25 6c 3d 11 24 17 be
       -0.04332472 0.38391203 0.05765286 -0.14759852
0003a0 e4 62 e5 be 85 d6 99 3e c3 e3 c1 be ba 88 c4 3e
       -0.4480201 0.30046478 -0.3786908 0.38385564
0003b0 8d f2 e3 be 37 dd 12 3f d0 3a 27 3e 91 46 e7 be
       -0.4452099 0.573688 0.16331029 -0.45171025
0003c0 4b 4e ec 3d 6e 78 05 3f 17 ff f0 be c0 c7 ac be
       0.11538371 0.52136886 -0.47069618 -0.33746147
0003d0 72 8c 5c 3e 80 21 34 3f de 4d d9 3e e3 d0 51 3e
       0.2153795 0.70363617 0.4244222 0.2048984
0003e0 2a 6d 30 be 6d c0 2a be 25 00 b1 be 92 c3 bb bc
       -0.17229143 -0.16674967 -0.34570423 -0.022920404
0003f0 ed 60 ca 3c d4 ec ad 3e 45 65 62 3d 3f 3f 08 be
       0.024704421 0.33969748 0.05527236 -0.13305376

linear1.bias f4 [128]
000000 97 43 ca 3e 3a 63 6f 3e 27 88 86 be a4 71 24 3e
       0.39504692 0.23377696 -0.2627575 0.16058975
000010 cd e6 6e 3d 58 89 ef 3d f0 f7 9c 3e 72 34 d5 3d
       0.058325578 0.11696118 0.3065791 0.10410394
000020 14 25 c9 3d 2a 83 b3 3e 29 29 87 be cb 90 d9 3d
       0.09821525 0.35061008 -0.2639859 0.1062332
000030 3f df fa bd 96 0d 06 bc 75 53 15 bc 36 1e 5a 3e
       -0.12249612 -0.00818195 -0.009114136 0.21300587
000040 b8 a0 98 3e fa 1d a3 3e ec 98 af 3e 31 48 88 be
       0.2981012 0.31858808 0.34296358 -0.26617578
000050 0c b0 76 be bc 0c 62 3d 26 8b 04 be 0d 49 65 3e
       -0.24090594 0.055187926 -0.12943706 0.22391148
000060 4f 04 8f 3e 34 f6 38 3d 37 c0 12 be 42 01 81 3e
       0.27932975 0.045156673 -0.14331137 0.25196272
000070 58 91 21 be e4 08 ef 3d 9d 3b bb 3e 0b f5 a2 3e
       -0.157781 0.116716176 0.3656892 0.31827578
000080 02 ca 5d be fb 88 24 bd 09 e9 a5 be ca 72 62 3d
       -0.21659091 -0.040169697 -0.32404354 0.055285253
000090 92 30 60 3e c7 b2 4b 3e 70 13 72 be 5e e5 d0 bd
       0.21893528 0.19892417 -0.23640227 -0.10199998
0000a0 34 40 88 be f9 7d 9d 3e fe 82 8a 3d bb 40 81 be
       -0.26611483 0.30760172 0.06763266 -0.25244698
0000b0 85 86 87 bd 5f ef 6c 3e 65 28 a3 3d 12 45 44 3e
       -0.066174544 0.23138188 0.07966689 0.19166973
0000c0 ee 75 b0 be 4e 5a 5c be 1c 0f 73 be 6d f2 68 3e
       -0.34464973 -0.21518824 -0.23736233 0.22748728
0000d0 21 28 a6 3e 42 0b 9e 3e 56 47 a6 3e 1b b1 7a 3e
       0.3245249 0.30867964 0.324763 0.24481623
0000e0 39 af 26 3e b1 e7 d1 3e ef c0 29 3e 7e 24 2b 3e
       0.1627778 0.4099708 0.16577505 0.1671314
0000f0 df 29 77 bd 0e 72 e4 bd 81 79 63 be 80 a8 bd 3e
       -0.060342666 -0.11154567 -0.22214319 0.37042618
000100 07 0c 0e 3e 98 48 ff bd 7f 7c 92 3e b9 f0 90 bd
       0.13871776 -0.12465018 0.28610608 -0.07077164
000110 5c 23 43 3e 04 30 3e 3e 22 c9 23 be 4f d0 b9 3c
       0.19056457 0.18573004 -0.15994695 0.022682337
000120 40 2a 8c 3e ed 91 59 3e 18 70 68 3e 99 08 d2 3e
       0.27375984 0.21247073 0.2269901 0.41022184
000130 ec 03 8d 3e 85 26 19 3e 29 5a 98 3e c3 66 a5 be
       0.27542055 0.149561 0.29756287 -0.32304963
000140 2b 41 6e 3d 10 62 99 be 50 89 99 be 88 d4 8a bd
       0.058167618 -0.29957628 -0.29987574 -0.06778818
000150 dd d8 a3 be 8b 7d 91 3e bd 53 b5 3e ab a4 c5 3e
       -0.3200139 0.28416094 0.3541545 0.38602194
000160 08 38 84 3e 5d 14 1f bb 36 e2 bd be 27 83 2f be
       0.25823998 -0.0024273612 -0.37086648 -0.17139874
000170 dc 3a a2 3e eb 69 db bd b6 38 eb 3d 4f be 27 be
       0.3168553 -0.107135616 0.11485426 -0.1638119
000180 0d c0 42 3e 41 c5 ab be ba 09 7d 3e 85 47 0c be
       0.19018574 -0.3354893 0.24710742 -0.13699158
000190 cc 8f dc bd 6b 8d 6c 3e 27 ea d3 3d ae 69 e9 bd
       -0.107696146 0.23100822 0.103473954 -0.1139711
0001a0 93 2a 44 bc b9 87 4d 3e 94 04 bc be 53 76 58 3e
       -0.011973041 0.20071305 -0.36722243 0.21138887
0001b0 6c ed 81 3e 62 de 9e be 2b e4 a3 3e 28 0c a3 3e
       0.2537645 -0.3102904 0.32010016 0.31845212
0001c0 76 c6 b9 3d da bf bf 3e 7e 9d d3 3e b2 91 56 bd
       0.090710565 0.3745106 0.41331095 -0.05238504
0001d0 02 e0 86 be 92 27 33 3e 4f 28 3e 3e b7 12 bc 3e
       -0.2634278 0.17495564 0.18570064 0.36733028
0001e0 81 12 9b be a8 34 7e 3e 61 da 03 be e3 d3 96 3d
       -0.30287555 0.24824774 -0.12876274 0.07364633
0001f0 10 4a 06 3e db 15 31 be 23 10 2a 3e 1f 93 b1 3c
       0.1311419 -0.17293493 0.16607718 0.021676598

linear2.weight f4 [128, 128]
000000 2e d1 a7 3c 97 4a 1d bb 19 5b 7c bd 2f 05 be bd
       0.020485487 -0.0024000758 -0.061610315 -0.092783324
000010 ae 10 87 bc d8 f7 b9 3d fd 85 79 bc 8d 93 aa 3a
       -0.016487446 0.090804756 -0.015229699 0.0013013944
000020 55 8f a3 bc 35 b5 e6 bd 4e eb 35 bd a0 03 28 3d
       -0.019965807 -0.11265031 -0.044413857 0.041019082
000030 0a 8d 56 3d 94 29 7b bc 87 38 0f bd da 1c e6 bd
       0.0523806 -0.015329737 -0.034966018 -0.11235972
000040 58 2c 52 bd f2 a5 92 bd 90 1e 21 be 1d b7 83 3e
       -0.05131182 -0.07160558 -0.15734315 0.25725642
000050 94 3e 0f 3c cd db e5 bd f3 7b 76 3e cf 04 9f bd
       0.008742947 -0.11223564 0.2407072 -0.07764589
000060 11 ff ac 3c 51 02 a0 3e f7 d1 37 3d dc bb 0a be
       0.021117719 0.31251767 0.044877972 -0.13548225
000070 ec d7 70 bd ae df 2d 3b f1 51 a1 3c 2f 47 18 3e
       -0.05879967 0.0026531029 0.019692393 0.14870904
000080 2b ce 33 3d b7 63 68 bd bb de 04 be c3 0c 0c 3c
       0.04389779 -0.05673572 -0.1297559 0.0085479645
000090 15 4f be bd db 10 b6 bd 9d d2 62 3b 4f ae c5 bd
       -0.092924275 -0.08889934 0.0034610399 -0.09652387
0000a0 89 b3 11 bc f1 cc da 3c 85 51 ab bd 8b 56 98 bc
       -0.008892902 0.026709052 -0.08365158 -0.018595954
0000b0 63 16 f5 3d 22 25 93 3e fb fd ea bd 98 a2 04 3d
       0.119671606 0.28739268 -0.11474224 0.032381624
0000c0 0c db 78 bd 89 f2 ce 3c 64 e9 d2 3d 7f dd 72 3d
       -0.060755774 0.025262134 0.10298422 0.059293266
0000d0 8a 32 99 bc 73 04 88 bd 42 07 30 3d ec 86 50 be
       -0.018700857 -0.066414736 0.04297567 -0.20363969
0000e0 2e f5 71 3d 04 d2 77 3e 9b 3c a5 be e9 d0 83 3d
       0.059071712 0.24201208 -0.322728 0.06436331
0000f0 d9 7f 46 bd 47 7e 26 bd 3f a9 21 3e 9e 0f 6e 3d
       -0.04846177 -0.04064777 0.15787219 0.058120362
000100 ae 1b 1d 3e 5b bb b0 bd aa 7a 0e 3e b6 f0 1a 3b
       0.1534259 -0.08629485 0.1391398 0.002364201
000110 90 34 97 3d d0 9b 0f be 29 3a 0d bd a7 d6 af 3c
       0.073830724 -0.14024282 -0.034479294 0.021464659
000120 6e 73 06 3c 90 06 49 3e a7 ea ba bd 0b ca 9a 3d
       0.0082062315 0.1963141 -0.09126788 0.07558068
000130 e2 f7 4b bd c4 11 fc bd c2 c6 56 bd 8b 7f 4f bf
       -0.049796946 -0.12308076 -0.052435644 -0.8105399
000140 74 c0 9c 3e 44 c1 a9 3e be c0 5a 3d 99 f4 19 bc
       0.3061558 0.33155262 0.05340647 -0.0093966955
000150 8a 1d a5 3c c5 52 21 3d b5 21 59 3d 94 17 d4 bd
       0.020155687 0.039385576 0.05301066 -0.1035606
000160 5e ec bb 3b 2f b4 95 bd 21 45 be bd 3a d3 08 bd
       0.0057349643 -0.07309758 -0.09290529 -0.033404566
000170 4b 23 f6 3d 47 13 6e bd e2 7e ea 3d 61 29 85 bd
       0.1201845 -0.058123853 0.11449982 -0.06502033
000180 74 38 11 be 60 ac 43 be a6 0a 3d 3e 3e 08 cf 3e
       -0.14181691 -0.19108725 0.18461093 0.40435976
000190 c1 6b 6a 3d 02 6c c9 bb c4 62 4d bd 95 76 91 be
       0.05723167 -0.0061469087 -0.05014302 -0.28410783
0001a0 a9 22 f7 bd 2d f1 d0 3c a6 eb bf bd e4 06 56 3b
       -0.12067158 0.025505627 -0.09371118 0.0032657916
0001b0 1a 53 0c bd b8 ec 93 bd d9 34 b9 bd e8 42 bc bd
       -0.03425894 -0.07222885 -0.09043283 -0.09192449
0001c0 03 21 2f bb a2 67 a7 bd 81 93 bf 3d 1b 61 91 bc
       -0.0026722557 -0.08174063 0.09354306 -0.017746499
0001d0 44 24 9f bc ce 1c ed 3d 12 26 48 bb 2d e4 2c 3d
       -0.019426472 0.1157776 -0.003054027 0.042209793
0001e0 06 bd 8d 3d 4b 07 68 3e ff b5 f9 bd c8 88 70 3c
       0.06920819 0.22659032 -0.12192916 0.014681049
0001f0 1d 00 c2 bd 38 2a 0d be 27 a1 b6 39 91 b3 bd bd
       -0.09472678 -0.13785636 0.00034833813 -0.09262765
000200 93 83 8e 3d 47 c8 54 3d 1c 6b 2d bc 5e 7b 12 3c
       0.069586895 0.05194881 -0.010584619 0.008940546
000210 7b 06 30 bd a7 bb 94 3c 85 7e 77 3d 56 4b 19 bd
       -0.04297493 0.018155886 0.060423393 -0.03742536
000220 14 25 9a bd 5c 5b 70 bd 8b 02 93 3d 75 b0 63 bd
       -0.07526603 -0.058680877 0.071782194 -0.055588204
000230 fb 3c 0b bc 31 35 6b bc ba a3 4e bb 6f 92 88 bd
       -0.008498426 -0.014355944 -0.0031530694 -0.06668555
000240 ab e1 85 3d ed b9 94 bd 89 b8 13 3d 72 28 45 3d
       0.065371834 -0.07262025 0.03606466 0.048134275
000250 8a 82 c9 be 71 63 94 bd 9e eb 43 be d2 0e 40 3d
       -0.39357406 -0.072455294 -0.1913285 0.046889134
000260 9a 6e bd bd f4 a4 4a be 66 46 a2 3d 30 b4 ab 3d
       -0.09249611 -0.19789487 0.07923584 0.083839774
000270 84 1d b4 bd 59 97 6c bd a6 01 fe 3a da 6f 84 bd
       -0.08794692 -0.057761524 0.0019379153 -0.064666465
000280 35 3d 23 3d 4a d2 c1 3b a7 85 d2 3d 29 c3 91 3d
       0.039853293 0.005914961 0.102793984 0.07117302
000290 37 5b 60 bd 53 43 59 bd 20 24 6a 3c a3 27 d3 3d
       -0.05477449 -0.05304272 0.014290839 0.103102945
0002a0 ee d5 f2 3d 1a 45 0f bd ca f3 92 bd eb f0 cd 3c
       0.1185721 -0.03497801 -0.07175405 0.025139293
0002b0 47 f0 cc bd 1e ed 03 3c 60 fd 94 3d 12 08 92 bd
       -0.10006767 0.008052139 0.0727489 -0.071304455
0002c0 4b 25 0b 3e 25 86 9c 3d b3 b7 e7 3d 9a 87 fe 3d
       0.13588445 0.076427735 0.11314335 0.12428208
0002d0 8a 8a 9a 3d 21 32 c6 bd e3 39 cd 3c c6 5c c3 3d
       0.075459555 -0.0967753 0.025052017 0.095391795
0002e0 b6 33 58 3d 86 9c 0d 3e da fb 4b 3d 9d e0 a3 3d
       0.05278369 0.1382924 0.04980073 0.08001826
0002f0 3c ec 85 bd d8 45 dc bb 97 58 57 3d a6 d5 c1 bd
       -0.06539199 -0.006722193 0.05257472 -0.09464578
000300 3c 01 f8 bb e8 9e 6a bd 13 49 8d 3d db a4 2b bd
       -0.0075685065 -0.05728045 0.068987034 -0.041905265
000310 1e 2f 82 3c 34 2b a2 3a e9 d6 59 3d 88 12 08 bd
       0.015891608 0.0012372495 0.05318347 -0.033220798
000320 08 ec 87 3d 9e 7d 84 3d da d7 93 bb e1 ca 2f 3d
       0.06636816 0.06469272 -0.0045118155 0.04291809
000330 7b ba 89 3d b4 53 4d 3c 90 71 59 3d 61 43 13 bc
       0.067250215 0.012532163 0.053086817 -0.008988232
000340 41 1f db bc 86 fe 16 be fb e9 2c 3b 70 cd 01 3d
       -0.026748301 -0.1474553 0.002638458 0.03169006
000350 13 f4 9d 3d db 9d 44 bd 24 22 bd 3d 8c 7c fe 3b
       0.07712569 -0.048002105 0.092350274 0.007766312
000360 9e e8 a9 3c 83 16 f3 3d 69 0b a1 be 13 ab eb bc
       0.020740803 0.11869528 -0.31454018 -0.028768098
000370 c4 cb 3e 3d 8d f1 0e bd ae 5d 31 bc dc 2d a7 bc
       0.046581045 -0.03489833 -0.010825558 -0.02040761
000380 74 e4 45 bd cc 45 20 3d ee a0 ed bd 00 24 5f 3d
       -0.048313573 0.039129063 -0.116029605 0.05447769
000390 fa 97 d7 3d 25 a5 80 bd 56 30 64 bd 2f 01 b1 bd
       0.10527034 -0.06281499 -0.05571016 -0.08642804
0003a0 e8 03 fc 3b a1 c0 f5 3d 7c 35 e6 3d 7e 01 33 3d
       0.0076908953 0.11999632 0.1124067 0.043702595
0003b0 66 8c b2 3d 00 1d 06 3d ac 66 cb 3d 3f 6e 0d 3d
       0.08718185 0.0327425 0.099316925 0.034528967
0003c0 ee 56 6c 3d c5 a2 a1 bd 7b 44 d3 3d 3c 37 5b bd
       0.05770009 -0.07892374 0.10315796 -0.053519472
0003d0 36 b7 80 bd 91 c4 b2 bc 4c d1 93 bd ed 44 59 bd
       -0.06284945 -0.021822246 -0.072176546 -0.05304425
0003e0 05 7c 5a be d9 66 62 3d f9 c8 c1 3d 60 d1 99 bd
       -0.21336372 0.055273864 0.094621606 -0.07510638
0003f0 f2 ae 02 3d a8 36 00 bd 3e d7 5e bd 52 2d 64 bd
       0.031905122 -0.031302124 -0.05440449 -0.055707283

linear2.bias f4 [128]
000000 41 42 95 bd c5 5e 34 3d 9f 17 9e 3d 39 ca 86 3d
       -0.072880276 0.04403569 0.07719349 0.0658154
000010 59 70 8e bd b8 0f 92 3d 20 58 ae 3d 9e 30 1d bd
       -0.06955022 0.07131904 0.08512902 -0.038376443
000020 8c 4f 70 3c aa e8 a4 bc b1 cf 95 3d 0a a4 6e 3d
       0.014667403 -0.020130474 0.073150046 0.05826191
000030 08 4c 81 bd 29 14 71 bd 9e c9 08 bd b5 d6 ce 3d
       -0.0631333 -0.058857117 -0.033395402 0.10099546
000040 da ee f2 bc 19 4d 17 3d 06 35 b6 3c c6 2a 40 bd
       -0.029654909 0.03693876 0.02224208 -0.046915792
000050 84 63 c5 3d 5b 24 a0 3d 7c ad a5 3d 2c a6 86 3d
       0.09638122 0.07819434 0.0808973 0.065746635
000060 18 97 b6 3c a2 9a b7 3d d0 a7 0e 3c 0c 27 a8 bc
       0.022288844 0.08965041 0.008707002 -0.020526432
000070 bc e1 75 bc bf 1d 8b 3d d1 ed f3 3c 53 2c 87 bd
       -0.015007433 0.06792783 0.029776486 -0.06600251
000080 f1 28 9c 3d c0 a0 df bd 4f e0 41 bd ca 07 3c 3c
       0.076249965 -0.109193325 -0.047333058 0.011476466
000090 37 47 01 bc b9 05 65 3c f7 25 b6 3d e2 2b 9f 3d
       -0.007890514 0.013978415 0.0889396 0.07772042
0000a0 e8 ab f0 3b 79 7a be bc 7d 5a 4e 3d d1 68 98 3d
       0.0073447116 -0.023251759 0.050379265 0.07441867
0000b0 bc 32 75 bb 70 b4 45 bd c8 54 a7 bd fa 4c 06 3d
       -0.0037414273 -0.04826778 -0.081704676 0.032788254
0000c0 d0 b5 59 3d d5 1e 74 bd 89 c4 8c bd 54 04 09 bd
       0.053151906 -0.059599716 -0.068734236 -0.033451393
0000d0 fe f7 33 bd 29 ce 4c bd df ff d2 3b b3 d8 bb 3d
       -0.043937676 -0.050001297 0.0064391936 0.091721915
0000e0 e7 01 a7 bd e0 af 95 bd ef 25 a4 bd 9d d0 e4 bb
       -0.0815466 -0.07308936 -0.08015048 -0.0069828765
0000f0 f7 9b 8b 3d 1c 5c 8b 3d d4 94 8d 3d ac cd 7f 3d
       0.06816857 0.06804678 0.06913152 0.062452003
000100 3d 9c 78 3c af a0 06 bd 37 93 ab 3d 7c e7 d3 3d
       0.015173969 -0.032868084 0.083776884 0.103468865
000110 94 8e 99 bd 5c 21 8d bc cf 6c 0c 3d e3 a1 56 bd
       -0.07497898 -0.017227821 0.034283455 -0.05240048
000120 9b 42 84 bd 6e e9 3c 3d 1b 0f d7 3b 2e 73 82 bb
       -0.064580165 0.046121053 0.00656308 -0.0039810156
000130 4a 46 10 3c f6 e9 83 3b 64 1e f0 ba 32 c1 4f 3d
       0.008805821 0.004025693 -0.0018319604 0.050721355
000140 75 3a 9d bc ba e5 6f bc 6f 16 a3 3d 14 ba b3 bc
       -0.019192914 -0.014642173 0.07963263 -0.021939315
000150 cf 11 c0 3d 0a ba 6e 3d 4d cf 92 bd 49 62 38 3c
       0.09378397 0.05828289 -0.07168446 0.011253902
000160 14 3e 26 3c 37 68 a5 3c bc 46 0c bc c6 63 5a bd
       0.0101466365 0.020191295 -0.008561786 -0.053317808
000170 39 e3 24 bd bb 62 07 bd 40 d0 80 3d 8b f2 18 3d
       -0.04025576 -0.03305314 0.062897205 0.037340682
000180 e1 6a 17 bc 3e d7 77 bd d7 22 0a 3c 56 aa 98 bd
       -0.0092417905 -0.060508005 0.008431158 -0.07454364
000190 60 c0 67 3d 1d 79 25 3d 22 b2 c0 3d bd bd b5 bc
       0.056579947 0.040398706 0.09408976 -0.0221852
0001a0 e8 1e 5e 3d 9e ac ce bc f8 63 8d bd 94 0c ca bb
       0.054228693 -0.025228795 -0.06903833 -0.00616605
0001b0 6f 73 c1 bc e7 f0 01 3d 01 34 6a bb 71 18 3a bc
       -0.023614613 0.031723883 -0.0035736563 -0.011358366
0001c0 f6 7f aa 3c 3b ec a0 3d 44 f4 3c bb cf 72 0c bc
       0.02081297 0.078575574 -0.0028832117 -0.008572294
0001d0 85 3d 3b bd 67 0f 8a 3d 1f b2 1b bd 9c 6e 72 bd
       -0.045712966 0.06741219 -0.038011666 -0.059187517
0001e0 12 12 bd bc 39 fb 04 bd 9a d9 7c bd 40 ce b7 bc
       -0.023079906 -0.032466147 -0.06173096 -0.022437215
0001f0 72 96 ad 3d ff d3 8d bd f4 38 60 3d a8 49 ba bd
       0.08475961 -0.06925201 0.054741815 -0.0909608

linear3.weight f4 [128, 128]
000000 e4 ae b1 3d 76 97 91 bc e3 a7 e3 bb bd c9 86 bd
       0.08675936 -0.017772418 -0.006947504 -0.06581447
000010 c9 da 47 3d d1 6d 2f be 29 15 e2 bd 64 98 51 3e
       0.048792634 -0.17131735 -0.11039192 0.20468289
000020 33 59 97 bd 65 50 01 bd fd da c3 bc 48 b3 ea 3c
       -0.0739006 -0.03157081 -0.023908133 0.028649941
000030 48 0d f5 bb 6e 2a 2c bc b3 99 67 3d 8e 70 b6 bd
       -0.00747839 -0.010508163 0.056543063 -0.08908187
000040 1c f3 5e 3d 41 7e 60 3c 33 1f 19 3e ed 98 5f be
       0.054431066 0.013701976 0.14953308 -0.2183568
000050 49 8c 35 3d 37 ed 4d bd 1f 75 18 3d 95 25 8a 3b
       0.04432324 -0.050275054 0.03722107 0.004215906
000060 b6 31 18 bd c5 44 21 bd 98 86 d1 bd bc 60 85 bc
       -0.037156783 -0.039372224 -0.1023075 -0.016281478
000070 96 bc d9 bd 0b e4 ad bd 54 28 f1 bd 02 02 c1 3b
       -0.10631673 -0.08490761 -0.1177527 0.005890132
000080 93 e9 d7 bc 9f 05 b1 bc 27 ed 5c bd b9 09 a7 3c
       -0.026356494 -0.021609126 -0.053937104 0.020390378
000090 d4 32 f7 bc d3 a7 41 bd fb 69 5f bd c9 08 62 3d
       -0.030175604 -0.04727919 -0.05454443 0.05518416
0000a0 c7 3a cf bc 38 93 5c 3d 5b c3 06 3e d0 4d aa bc
       -0.025296582 0.053851336 0.1316046 -0.020789057
0000b0 56 0f a9 3d ca be ad 3d 80 08 00 be 03 a0 20 bd
       0.08254878 0.08483656 -0.12503242 -0.0392151
0000c0 8c 17 5f 3d 93 a6 95 3d cc 84 fc bd e6 e5 84 3e
       0.054465815 0.07307162 -0.123300165 0.2595665
0000d0 80 bf 93 3c 03 af 5d 3d ce 90 c8 3d 83 87 04 bd
       0.01803565 0.054121982 0.09793244 -0.032355797
0000e0 6d 0a 76 bb ed fa 62 3d f3 5a 8f 3e 50 a4 18 be
       -0.0037542835 0.055415083 0.27999076 -0.1490643
0000f0 de 4b 04 3e d7 5f 4f 3c eb b8 c5 3b 7a 69 8c bd
       0.12919566 0.012657127 0.006034007 -0.068560556
000100 1a ab ae bc ba b9 c0 bd 13 9a 91 3d 4a 43 5b 3d
       -0.021321822 -0.094104245 0.071094655 0.05353097
000110 79 86 9c bd 9d 3b 6d 3d 89 26 1a be cd 79 5a bd
       -0.07642836 0.05791818 -0.15053762 -0.053338815
000120 64 98 1f bd 15 52 a4 bd cf 79 35 bd 57 2a eb bd
       -0.03896369 -0.080234684 -0.04430562 -0.11482685
000130 5e a6 90 bd 84 22 7e 3c 2a a0 6d bd 28 1f 36 be
       -0.07062982 0.015511159 -0.058014072 -0.17785323
000140 e0 e7 37 bd c3 90 5f bd 90 55 e6 3c 1c 53 b3 3d
       -0.044898868 -0.054581415 0.028116971 0.08756086
000150 18 b3 ed bc 41 60 45 3e 95 9f f6 3c 18 3a cd bc
       -0.029016063 0.19274999 0.030105392 -0.025052115
000160 66 4e 88 3e b3 c8 be bd 1e a1 11 3e cb 08 ee bc
       0.26622313 -0.09315624 0.14221618 -0.029056927
000170 a5 1b 8c 3d bc b8 ba bb 51 2c f6 bd 0d 0b f3 3c
       0.0684121 -0.0056982916 -0.120201714 0.029668355
000180 df dd 8f 3e 77 5c 4c bd f4 a8 97 bd 4f 1a 24 3e
       0.28098962 -0.04989287 -0.07405272 0.16025661
000190 29 9b e1 3b 10 32 d3 3d b8 6a eb 3d c8 14 ce bc
       0.0068849516 0.10312283 0.11494964 -0.025156394
0001a0 15 69 32 bd 68 ba 2b 3d ba 05 e0 3d 6d 78 b7 bd
       -0.043557245 0.041925818 0.10938592 -0.08958516
0001b0 15 13 0f 3e bb 4f 37 3d f7 d8 0d bb 13 a1 f6 bd
       0.13972123 0.04475377 -0.0021644214 -0.12042441
0001c0 52 15 5a 3d 83 f5 9a 3d d3 12 b3 3d 80 0a bb 3d
       0.05324299 0.07566359 0.08743825 0.09132862
0001d0 f7 cd 3f 3e d1 9e eb 3d 65 27 e3 3d 8c 3d b4 bc
       0.18730913 0.11504901 0.11091498 -0.022002004
0001e0 24 c1 f1 3d ec 39 a9 3d e5 95 af 3d 28 da 0a 3d
       0.11804417 0.08263001 0.08573512 0.033899456
0001f0 a3 5c b0 bd 90 bc 6c be 9b 63 07 be 18 f9 c1 bc
       -0.08611419 -0.23118806 -0.1322159 -0.023678347
000200 5d 1c 01 be 07 33 19 3b cd 62 25 bc 20 c8 30 bd
       -0.12608476 0.0023376362 -0.010094357 -0.043159604
000210 d3 3f 64 3d 56 c2 e6 3c a7 c4 29 3d 9b 5a 57 bd
       0.05572493 0.028168838 0.041447308 -0.052576642
000220 10 ae a3 bd 1c 51 96 bd 71 f4 1a bd e7 75 bc 3d
       -0.07992184 -0.07339689 -0.037830774 0.092021756
000230 ab b2 a0 3c 75 35 12 bd c3 6f 0e 3e 64 92 fa bc
       0.019616446 -0.03569551 0.13909821 -0.030587383
000240 a9 72 6a 3c 02 cc d8 3d 01 35 ad bb 5e 54 31 be
       0.014309564 0.105857864 -0.0052858596 -0.1731734
000250 c8 66 c2 3d 7b 04 b9 3d 59 94 93 bd 55 38 ce bd
       0.0949226 0.09034058 -0.072060294 -0.10069338
000260 0c 0c d8 3c cb 8a 01 bd b6 5a 5a 3d 74 99 2f bd
       0.026372932 -0.031626504 0.053309165 -0.042870954
000270 41 3f c5 ba 4c 5b 98 b9 2a 85 0a 3e 9e 9a 88 3d
       -0.0015048758 -0.0002905972 0.1352736 0.06670116
000280 a0 3d c5 3c 64 e0 22 3d 67 55 59 3d 66 cd 04 3c
       0.024077237 0.039764777 0.05305996 0.008105611
000290 da 32 0f 3d 9c 9c 11 3b 2c fa b2 3d ec bd c9 3b
       0.034960605 0.002221859 0.08739123 0.0061566737
0002a0 4e 80 98 3d 55 e1 72 bc 11 46 83 bd 3f 73 0f 3d
       0.07446347 -0.014824231 -0.064098485 0.035022017
0002b0 ca 52 cb bd 97 aa aa bd e2 7a a4 3d 86 ae 55 39
       -0.099279 -0.08333319 0.080312505 0.00020378278
0002c0 4e db f4 3d 11 3f 57 3c 71 44 18 3d 7c e1 ea 3e
       0.119558915 0.013137595 0.037174646 0.45875156
0002d0 3d 51 9e bc bc d5 e0 3d 98 45 71 bd 93 3a 62 3d
       -0.019325847 0.109782666 -0.05890426 0.055231642
0002e0 b2 1b d2 be 0e 44 bf be 33 93 95 be 7f db 08 bd
       -0.41036755 -0.3735661 -0.29213867 -0.033412453
0002f0 c8 35 0b bd 3c 95 6d 3b 3b fb 5b 3d 43 0d 90 3d
       -0.033986837 0.003625228 0.05370639 0.070337795
000300 0c dd 95 3d bd 18 ab 3d d0 01 a6 3d 60 e2 28 3a
       0.07317552 0.08354328 0.081058145 0.0006442424
000310 03 38 1d bd 7a 9b bc bb 9d e0 b0 3c 4b 0a 9e 3d
       -0.038383495 -0.005755839 0.021591479 0.07716807
000320 d0 66 6a bd 2a 00 78 3d 3a 78 77 3d 37 68 9d 3c
       -0.057226956 0.06054703 0.06041739 0.019214733
000330 81 96 72 bc 01 aa 97 bd 7a c2 ab 3d 44 dc 62 3c
       -0.014806391 -0.074054725 0.08386703 0.013846461
000340 e7 73 d1 be 69 6c 75 bd 0e ec 16 3c cb 27 08 3d
       -0.4090874 -0.05991784 0.009211553 0.033241075
000350 58 65 e1 3d 32 ff 23 3e 35 41 4b bc a2 19 74 bd
       0.11005658 0.16015318 -0.012405683 -0.059594758
000360 dd 4d 95 be 85 e7 10 3e e1 84 03 bc 41 3d 92 3d
       -0.29160967 0.14150818 -0.008027286 0.071405895
000370 01 9f 40 3d e3 09 7e be 83 24 8d bd 95 19 fe 3d
       0.047026638 -0.24808459 -0.0689173 0.12407223
000380 b1 c2 0b bd ec 01 0a 3e 8d 6b ff bc 2e b6 a8 3e
       -0.03412122 0.13477296 -0.031179214 0.32951492
000390 43 3d 76 bd 7b 7f f9 bc d1 55 b4 bb c5 a1 c1 bd
       -0.060117017 -0.030456295 -0.005503394 -0.09454683
0003a0 e1 48 20 3d 43 c9 d7 3d 84 c1 17 be 5e 72 00 3d
       0.039132003 0.105364345 -0.14819914 0.03135907
0003b0 bf 47 0f 3d 34 7d f9 bc cb c2 00 bd 8b a4 29 3c
       0.03498053 -0.03045521 -0.03143577 0.0103541715
0003c0 5f a8 ba 3c c2 d1 8f bd b3 a3 d4 3d 57 18 f7 bd
       0.022785364 -0.0702243 0.10382786 -0.12065189
0003d0 85 c6 52 3e ab 80 60 3d bf 4c f6 bc 79 87 27 3d
       0.20583542 0.054810207 -0.030065892 0.04090068
0003e0 95 19 82 bd 8e aa 9c 3d 84 36 7c 3d 6a 32 ed bb
       -0.06352536 0.07649718 0.061575428 -0.007238676
0003f0 88 d3 4c 3d 4c da 02 3d 89 f8 95 3d 0a 03 ad bd
       0.05000642 0.031946465 0.07322795 -0.08447845

linear3.bias f4 [128]
000000 6f b9 88 3d a5 69 bb 3c 60 2f 2c bd e6 2e d4 bd
       0.06675994 0.022877524 -0.042037368 -0.10360508
000010 e4 7d 4f 3d 3e 29 53 bc ee 70 6e 3d 6c 2a 3e bd
       0.050657168 -0.012888251 0.058213167 -0.046427175
000020 43 67 9e 3d ce 8f ad 3d c3 80 c7 bc d0 ef 28 3d
       0.07734539 0.08474694 -0.02435339 0.041244328
000030 58 01 c8 3d cf 61 07 3c 86 05 00 bd 8c 89 88 bd
       0.09765881 0.0082630655 -0.031255268 -0.0666686
000040 c4 df 0d 3d f4 eb bd 3d c7 06 31 3d 77 94 e1 3c
       0.034637228 0.0927352 0.043219354 0.027536614
000050 6c b2 98 39 a2 40 21 bc bb 8a 9b bd 24 60 8e bd
       0.00029124634 -0.00984207 -0.0759482 -0.06951931
000060 81 c7 7c 3d a2 18 52 3b cf 4e 94 3d 93 1b a9 3d
       0.0617137 0.003205814 0.07241594 0.082572125
000070 c9 87 19 3d ad 6a 83 3c 67 66 da 3c fe 58 45 3b
       0.03748301 0.016042078 0.026660157 0.0030112858
000080 27 e6 46 bd 4f cc 20 bd b3 7d 36 3d 4a e7 8f 3d
       -0.048559334 -0.039257344 0.04455347 0.07026537
000090 9d 54 02 bd 77 0e 1c bd c0 86 37 bb 5e 25 2d 3d
       -0.031818975 -0.038099732 -0.0028003901 0.042271964
0000a0 e2 40 d9 3c 85 da a6 3d ae 0c a9 bd f1 c1 a7 bc
       0.026520196 0.08147148 -0.082543716 -0.02047822
0000b0 9d 9f 67 3d a9 ae 37 3d 33 20 7a bd d4 2e 48 bd
       0.056548703 0.044844303 -0.061065864 -0.048872784
0000c0 af 3e b4 3d 11 63 bb 3c be 5d 54 3d 0b 20 9f bd
       0.088010184 0.022874387 0.051847212 -0.077697836
0000d0 b4 e5 7b 3d e1 38 d9 bb 79 8c 30 bd 12 ff 69 bd
       0.06149836 -0.006629095 -0.043102715 -0.05712802
0000e0 59 cc 7c bd 04 95 8a 3d ec 23 5d bd c9 fa 0e bb
       -0.06171832 0.06766704 -0.053989336 -0.002181696
0000f0 d3 96 85 3d 7c 63 e8 ba 3b 21 51 bd 1b 5b 12 3d
       0.06522908 -0.0017729844 -0.05105708 0.035731416
000100 84 97 90 3d f4 6b 8e bd a2 1e a9 3d e4 5c 08 3d
       0.07060149 -0.06954184 0.08257796 0.033291712
000110 1a 6e ef 3b be ae 4d bc 5b 46 9d bc 78 23 85 3d
       0.0073068263 -0.012553869 -0.019198587 0.06500906
000120 b8 d1 26 3d e8 ee a0 3d 5e ba 6d 3c 8a d8 31 3d
       0.040727347 0.07858068 0.014509765 0.0434194
000130 01 d5 89 3d f6 5e 60 3d 11 bc 7f bd 11 c7 fb bc
       0.067300804 0.05477806 -0.062435213 -0.03073457
000140 55 ad 4c bd b1 7d b9 bd cf e2 00 bd 8b 21 00 bd
       -0.04996999 -0.09057177 -0.0314663 -0.03128199
000150 05 69 1f bc ad 7e 24 bd 5a 26 ab bd 45 c0 63 3d
       -0.009729628 -0.04015987 -0.08356924 0.055603284
000160 d8 56 0d 3d 3c 05 7a 3d e7 ef 9b 3d e9 f7 72 bc
       0.03450665 0.06104015 0.07614117 -0.014829614
000170 14 a9 fe 3c 2e aa c6 3b 01 b0 b9 3d aa e5 4d 3d
       0.031086482 0.0060627675 0.09066773 0.050267853
000180 9c e9 27 bc 33 ad 90 3d 34 4b 07 3a ae 4c 83 3d
       -0.010248568 0.07064285 0.00051610474 0.0641111
000190 f3 3c 5c bb 2d 2e 7b bd a8 8e 86 3d f9 d8 08 3c
       -0.0033605665 -0.061323334 0.06570178 0.008352512
0001a0 1f 40 9a 3d 75 1c 05 bd 80 08 1b 3d e0 18 9c bd
       0.075317614 -0.032497842 0.037849903 -0.07621932
0001b0 29 31 84 bd af e1 95 bd 03 b1 df bc 40 ca 4f 3d
       -0.06454689 -0.07318436 -0.027306085 0.05072999
0001c0 6f 31 23 bd 4f 38 af 3c fb c1 8f 3d ff 56 e5 bc
       -0.039842065 0.021389155 0.07019421 -0.027995585
0001d0 37 d1 c6 3b d1 79 50 3c 31 ff 33 bc 65 07 9e 3d
       0.006067421 0.012724356 -0.010986135 0.07716254
0001e0 12 7e ab bb 72 e3 94 3c 1d b6 90 bc 91 62 7a 3d
       -0.0052335346 0.01817486 -0.017664963 0.061129157
0001f0 59 8c 97 3c bf d4 05 3d cf 15 c1 bc 8f 63 9e bd
       0.01849954 0.032673594 -0.02356997 -0.07733833

linear4.weight f4 [60, 128]
000000 24 bb f7 3c 59 ec c6 3c 9d 26 b0 bd d8 5e 9a 3d
       0.030240603 0.024282621 -0.08601115 0.07537621
000010 ba b0 6f 3d 4e 87 e7 3d db eb a4 3d af 68 69 bc
       0.05851815 0.11305104 0.08052798 -0.01424615
000020 19 6f d5 bd 9a e3 8c ba af 0c 46 3c 28 11 30 bc
       -0.10421581 -0.0010748983 0.012087985 -0.010746278
000030 25 09 a5 3c bc 06 87 3d 66 4a be 3d d4 a0 42 bd
       0.020145962 0.06593081 0.09291534 -0.04751666
000040 3b d9 9d bd dd 82 5d 3d a8 c7 a6 bd 56 f7 48 bd
       -0.07707449 0.05407988 -0.0814355 -0.049064003
000050 67 b4 91 3d 78 26 37 bc a0 89 a3 3c 0d 0e 66 3b
       0.07114487 -0.011178605 0.019963086 0.003510359
000060 be f9 c3 bd 63 39 15 bd 95 55 93 bd 93 d2 60 3d
       -0.09569119 -0.03643168 -0.07194058 0.05488832
000070 47 48 2b bd b9 c3 76 3d dd f4 1b 3d 9a bf b5 bd
       -0.041816976 0.06024525 0.038075317 -0.08874436
000080 be cc 2d bd 65 11 19 bd 8f 4d ef 3d 3d 8c 5a 3d
       -0.042431585 -0.037370104 0.11684715 0.053356398
000090 29 c0 42 3c a2 76 5e 3c 41 21 b2 3d 85 84 fc bd
       0.011886635 0.013578089 0.08697749 -0.123299636
0000a0 fb 1f 03 3d 52 05 eb bc 00 d1 74 be db 9d bf bd
       0.03201292 -0.02868906 -0.23907852 -0.093562804
0000b0 15 71 f1 bd 35 c5 b4 3c 60 48 1e bc 04 bc bf bc
       -0.11789147 0.022066692 -0.00966081 -0.023405083
0000c0 9f f0 cb 3b d2 ac 62 bb 7f 3d a6 3d 85 74 3c bb
       0.0062237526 -0.0034587872 0.08117198 -0.0028755974
0000d0 61 05 9b 3c d1 b5 29 3e 07 4a 04 be 01 49 d7 3c
       0.018923463 0.16573264 -0.12918864 0.026279928
0000e0 ee 5e c3 bd c2 5f 65 bc c5 12 64 3d 3b 8a 82 bc
       -0.09539591 -0.013999881 0.055681963 -0.015935054
0000f0 e6 50 91 3c f0 c3 96 3b 9f 0f 14 3d 45 90 d7 3c
       0.01773877 0.0046009943 0.03614771 0.02631391
000100 bb 58 62 bd e8 41 ae 3b 80 1c a9 3d 45 3a b1 3c
       -0.0552604 0.005317915 0.08257389 0.02163423
000110 77 7e 8a bd 9b 90 13 bd f2 62 0a 3d 8c 23 a9 3d
       -0.067624025 -0.03602658 0.033785768 0.08258733
000120 0c e4 01 bd 73 dd 37 3d ab 9d 91 3d f6 0d 6a 3d
       -0.031711623 0.044888925 0.07110151 0.05714222
000130 f7 39 56 3d af f1 a9 3c 81 db 15 3d 6c e4 e2 bd
       0.052301373 0.020745127 0.03658629 -0.11078724
000140 54 18 00 3e 96 e9 3b 3c 22 5c c2 3c 21 96 db 3c
       0.1250928 0.011469265 0.023725573 0.026804985
000150 72 5a 2c 3d 5f 73 82 3d bf 4d 13 3e d2 78 8d bd
       0.042078443 0.063696615 0.14385127 -0.0690781
000160 d0 09 c9 3d c1 4b 83 bc 3e 00 22 3e dc 87 ad 3d
       0.09816325 -0.016027333 0.15820405 0.08473179
000170 e3 a4 b1 bd f4 85 99 3c 69 93 e4 3d e2 36 0b 3d
       -0.08674028 0.018740632 0.11160929 0.033987887
000180 40 26 c8 bd 8c f1 60 3d 47 d2 97 bd bd a9 cf 3d
       -0.097729206 0.054917857 -0.07413154 0.10139797
000190 cc 31 d9 3d d0 6d ed 3b e5 6b 46 be 71 ff de 3c
       0.10605201 0.0072457567 -0.19377096 0.027221413
0001a0 c6 c7 ea 3d ba 5a c4 bd 9d 62 10 3e 5e 04 03 be
       0.11463885 -0.09587617 0.14100118 -0.12794635
0001b0 2f d9 1f bd 09 6e b2 ba df f6 34 bb 1c 97 8d bd
       -0.03902548 -0.0013613115 -0.0027612967 -0.069135875
0001c0 08 ff 58 bd c7 92 66 bd 68 59 13 bd 71 e1 bb 3d
       -0.05297759 -0.05629232 -0.035973936 0.09173859
0001d0 aa 81 9b bd 78 d3 8b 3d de 9e 26 be a8 92 cf bd
       -0.07593091 0.06827444 -0.1627154 -0.10135394
0001e0 41 f8 52 bc a8 69 54 bd d0 bb d9 3d a0 04 8a bd
       -0.012876571 -0.051858574 0.106315255 -0.067391634
0001f0 4a b1 ac bd 04 c9 af 3b ee df 91 bd 64 b8 b4 bc
       -0.08432253 0.005364539 -0.07122789 -0.02206058
000200 a5 cd 38 3c 7a 8f 4b 3d ef 99 bc bb 86 0b 2e 3e
       0.011279498 0.049697377 -0.005755655 0.16996583
000210 b3 bc 13 3d 48 fb 42 be a4 2f 98 3d d0 44 1c bd
       0.03606863 -0.19041169 0.07430962 -0.038151562
000220 34 d2 dd bd ff 85 43 3d 79 74 dd 3b d1 82 9b bc
       -0.10831109 0.04773521 0.0067582694 -0.018983277
000230 a2 c1 a6 3d ee 00 cf bc ae f0 7b 3d cc f5 ce 3c
       0.08142401 -0.025268998 0.061508827 0.02526369
000240 f5 02 11 bd dd 9d 8c 3d d1 e8 ca 3d d9 43 a2 bb
       -0.03540321 0.068660475 0.099076875 -0.0049519357
000250 b9 46 af 3d d2 bd 3d 3d 67 e5 9d 3c fe 4a bf 3b
       0.08558411 0.046323605 0.019274427 0.005837797
000260 ba 16 ad bc ba 15 86 3d 38 90 ae 3c a9 ef b4 bc
       -0.021129001 0.06547113 0.021309003 -0.022086935
000270 6a c5 fb bc 64 1b 5e 3d 1e d6 52 3d 66 1c c5 3c
       -0.030733783 0.05422534 0.05147373 0.024061393
000280 3c 0a 22 bd d6 75 fb bb 0d 4f 06 3d f1 9f 4d 3d
       -0.03956054 -0.0076739592 0.032790232 0.05020136
000290 85 98 0c 3c 4b f3 d5 bc 18 55 e5 bd 17 2e bd 3d
       0.008581285 -0.026116988 -0.11197871 0.092373066
0002a0 47 ee 2d 3d b1 34 e1 3d 19 b5 91 bd eb 1f 22 3d
       0.042463567 0.10996378 -0.0711462 0.03958122
0002b0 5a cf 42 bd 18 eb 15 3d d6 75 8c 3d 86 79 10 be
       -0.047561027 0.036601156 0.06858413 -0.14108858
0002c0 0c c5 88 bd ef ef 92 bd b4 33 be 3d 81 ec c1 3d
       -0.06678209 -0.0717467 0.09287205 0.09468938
0002d0 d6 aa 38 bc 42 c9 ae bd aa 3d 64 bd bc 63 12 3e
       -0.011271199 -0.08534481 -0.05572287 0.14295858
0002e0 58 95 41 bd 32 72 91 bc 49 83 7c 3d 4c 1f ab bd
       -0.047261566 -0.017754648 0.06164864 -0.08355579
0002f0 d6 97 fd bd 09 1a ac 3c 6f 46 57 bd 2c f5 cf bd
       -0.12382476 0.021008508 -0.052557405 -0.10154185
000300 7e 5d a3 bd cc ca 3f 3c 21 89 f8 3d 93 d6 60 bd
       -0.079768166 0.011706065 0.1213553 -0.054892134
000310 d0 28 4e bd 12 af c5 bd a4 39 70 3d 6d eb a6 3c
       -0.05033189 -0.09652533 0.05864872 0.020375932
000320 30 35 51 bd 5a db 15 be 69 b0 10 bd 7c f8 5b 3c
       -0.051076114 -0.14634457 -0.035324488 0.0134259425
000330 e2 0b fb bc 7a 17 cf 3d a2 f9 d4 3d 64 1e 71 3e
       -0.030645315 0.101119 0.10399176 0.2354675
000340 f3 d2 b3 bd 1a 35 44 3c c7 ed 84 3d 0b 0c 2f 3d
       -0.0878047 0.011975551 0.06490665 0.042736094
000350 fc 64 cd bd 75 21 eb bd 1d 37 e2 bc a1 cd c3 b9
       -0.10029027 -0.11480991 -0.02761417 -0.00037346504
000360 73 1a 78 bd 90 31 f2 bd 49 63 e7 bb 0b 76 5a be
       -0.0605721 -0.118258595 -0.0070613963 -0.21334092
000370 d6 40 02 3e 00 51 b3 bd 98 87 92 bd 01 ea 97 3d
       0.12720045 -0.08755684 -0.07154769 0.074176796
000380 8e 88 d4 3c 2e 17 ed bd f2 0b c3 bd ab 56 f2 bd
       0.02594402 -0.11576687 -0.09523763 -0.11832937
000390 d2 a8 d6 bc 4c da 78 3d ff 2e 03 be df b4 a0 bd
       -0.026203547 0.06075506 -0.12810896 -0.078469984
0003a0 60 8a 07 be fd cd 41 bd d3 32 26 bd e6 dc 24 bc
       -0.1323638 -0.047315586 -0.040575814 -0.010062432
0003b0 f7 af aa ba 81 c9 fa bd 64 2e 9f 3c 53 d6 48 bd
       -0.0013022412 -0.12245465 0.0194313 -0.04903252
0003c0 41 b9 14 bd 08 92 1a bd d1 95 9d bd 5c e3 c2 bc
       -0.036309484 -0.037736923 -0.07694591 -0.023790054
0003d0 ff 8b b2 3c c5 29 16 3d 16 f6 da 3d 10 67 d2 3a
       0.021795271 0.03666093 0.106914684 0.0016052444
0003e0 62 1c 3b bd cd 9e ad 3c 11 a0 9b 3d 93 17 fa 3a
       -0.045681365 0.021193886 0.075988896 0.0019080512
0003f0 93 3e 14 bd 6d 41 82 bd 81 0c ec ba ec 26 0a 3e
       -0.036192488 -0.06360135 -0.0018009098 0.1349141

linear4.bias f4 [60]
000000 bd 7f c1 bd 08 4a 06 3d 52 07 70 bd 38 96 62 bd
       -0.09448192 0.032785445 -0.05860073 -0.05531904
000010 d3 61 38 3c 9b a3 1d bd ed fd 1f bd 6b 04 0c bd
       0.011253792 -0.038486104 -0.039060522 -0.0341839
000020 e7 05 07 bd df 18 af bd e7 35 5f bd bc df 26 bb
       -0.032964613 -0.08549666 -0.054494765 -0.0025462946
000030 0e a4 4e 3d 6f bc 18 3d 9f 43 9e bc db 08 a5 3d
       0.050449423 0.03728908 -0.019319354 0.0805833
000040 a8 73 9c 3d bd 53 8f bd 8c 00 38 bd 5a e0 8b bc
       0.07639247 -0.06998394 -0.044922397 -0.017074753
000050 47 14 8c 3d 06 03 34 bd de a4 be bc 01 94 6e 3d
       0.06839805 -0.043948196 -0.023271974 0.058246616
000060 64 a9 7e 3d aa a2 a9 bd b9 35 aa 3d f3 eb 91 3d
       0.062173262 -0.08282979 0.08311028 0.07125082
000070 ba c7 36 3d 64 64 66 bd 32 f6 48 3d 76 91 8a 3c
       0.044624068 -0.056248084 0.049062915 0.016915064
000080 95 1d 00 bd 9f 2f b3 3d d8 f5 20 bc 15 16 1e 3d
       -0.03127821 0.087493174 -0.009824239 0.038595278
000090 cf 46 6f bd 55 a1 84 3d 5e 5e 65 bd 01 99 8a bd
       -0.058417138 0.06476084 -0.0559982 -0.067674644
0000a0 b6 45 94 bd cf e8 11 bc fd 48 8d 3c 5a 55 6f 3d
       -0.07239859 -0.008905604 0.017246718 0.058431007
0000b0 40 69 87 3c 04 75 a3 3d 0f 52 cc bc 92 be c9 3c
       0.01652968 0.07981303 -0.024941472 0.024627004
0000c0 cf f3 02 3d 60 55 48 bd 94 fa 1e bd 4c 53 89 3c
       0.031970795 -0.048909545 -0.03881319 0.016763352
0000d0 e1 a1 95 bc f5 ec 08 3d af 22 d9 bb 9a e3 93 3d
       -0.018265666 0.033429105 -0.006626449 0.07221146
0000e0 8f 6c 84 bd ad 04 8e bd dd 1a c0 bc 83 53 f4 3c
       -0.064660184 -0.069344856 -0.02345031 0.029824978
