linear_nn.pth (torch, 2671 bytes, 2 tensors)

0.weight f4 [60, 6]
0.34009522 -0.17801666 0.09471593 0.20124769 -0.16255113 -0.07045643 -0.1227465 0.04939311
-0.3044242 -0.12709083 0.07235018 0.22859287 0.18130949 -0.00016504392 0.11643605 0.0051339804
0.27393934 -0.14981788 -0.36402777 -0.018711517 0.0009246294 -0.04686005 -0.18728018 -0.2791427
-0.13582014 -0.37722063 -0.11847413 -0.253789 0.1039943 0.19191618 0.15667923 0.17574155
0.2387152 0.12583822 -0.19481763 -0.4007946 -0.37917277 -0.025566582 -0.30442077 0.35155198
-0.33588988 -0.40659052 -0.1099997 0.04864592 -0.23639135 0.03987721 0.31676632 0.26338068
-0.38660777 0.014434414 0.013028143 0.045660123 -0.067801334 -0.20821361 -0.13935962 0.37577328
0.35565054 0.1295905 -0.07624239 0.31219795 -0.329276 0.27521354 -0.00439932 -0.12369361
-0.07334025 0.36355022 0.19610229 -0.26413488 0.40255406 -0.2668161 -0.25655618 0.16367525
0.015408293 0.07847712 0.0072284425 0.2071417 0.32329014 0.21167488 0.14816113 -0.20132327
-0.36004058 -0.15141986 0.27975288 -0.1459906 0.16277689 0.10751345 0.021874633 -0.034802806
0.018192101 0.39111218 0.21872078 0.2570591 0.15076122 0.37487635 0.05242228 -0.2353088
0.35781634 -0.27204365 0.18911637 0.23094113 0.2827006 0.006351156 0.16144897 0.13115989
0.35181445 -0.38037518 -0.36548978 -0.02042543 0.2767919 -0.13518317 -0.25162414 -0.24573825
-0.11455563 0.37333623 -0.027545566 -0.02612643 -0.31645155 0.101338066 -0.16098839 -0.12807631
0.27264354 -0.0075307307 -0.16325188 -0.25304747 -0.1572948 0.3497599 -0.35639822 0.3455797
-0.3998799 -0.14768292 0.11147651 0.3615353 -0.03441757 0.2548539 -0.35326004 0.232243
-0.29691002 -0.17812319 -0.048146356 -0.25527102 -0.025060363 0.06164853 0.2701387 -0.24978244
-0.20947301 0.29706228 0.026321657 -0.12881297 -0.35606697 -0.154731 0.113286145 0.24616586
0.21795507 -0.019240653 -0.38417444 -0.11511151 0.33296534 0.16463986 0.1508883 -0.23740561
0.10934641 0.21175541 -0.09297715 -0.20344129 -0.1152962 -0.38816315 0.07715215 -0.059811674
-0.35462287 0.06940521 0.0025955057 -0.27845067 -0.21415503 0.25385404 -0.12867424 0.39858085
-0.30078602 0.2532524 0.05235148 0.00045819732 -0.35874465 -0.01334608 0.18925728 -0.3172044
-0.13549083 -0.25415623 -0.40207306 0.25580904 -0.15145096 0.28761137 0.30616423 0.023867233
0.19755091 0.11542027 -0.38011643 -0.16346854 0.3071879 -0.34673384 0.32506794 -0.26898345
-0.0784812 0.029637977 0.16766788 -0.31953046 0.013624991 0.09539233 0.40162903 0.07569692
-0.257698 0.23932365 0.07081233 0.2088935 -0.033183884 0.3576674 -0.0488463 0.09180259
0.23418535 -0.105418235 -0.29974967 0.078623235 0.35499254 -0.29505208 -0.31161213 -0.118414395
0.2549709 -0.060231183 -0.33069706 -0.067840576 0.2757454 0.10712831 -0.34976563 0.045301355
0.28482512 -0.37752247 -0.29300055 -0.21463956 0.37616044 0.06899322 -0.015491346 -0.11924342
0.008980399 0.2542707 -0.17315523 0.29549995 -0.36790177 0.22080286 0.2880164 0.060390458
0.16293812 -0.17818873 0.25332314 0.074603125 0.22308746 -0.3286447 0.293316 0.13790686
00000000: f620 ae3e 004a 36be 6dfa c13d e013 4e3e
00000010: ce73 26be 764b 90bd 8462 fbbd 6e50 4a3d
00000020: 7ddd 9bbe 1924 02be 552c 943d 4014 6a3e
00000030: 32a9 393e a40f 2db9 0676 ee3d f33a a83b
00000040: c741 8c3e dc69 19be d961 babe e548 99bc
00000050: d462 723a 53f0 3fbd 60c6 3fbe cbeb 8ebe
00000060: 6f14 0bbe 1023 c1be 91a2 f2bd a2f0 81be
00000070: f7fa d43d ad85 443e 8570 203e 98f5 333e
00000080: c271 743e bcdb 003e 467e 47be f334 cdbe
00000090: ef22 c2be 0271 d1bc 0add 9bbe 9ffe b33e
000000a0: c2f9 abbe a22c d0be 8647 e1bd f240 473d
000000b0: 9310 72be 4956 233d 322f a23e d5d9 863e
000000c0: 74f1 c5be 527e 6c3c fe73 553c 1c06 3b3d
000000d0: 6ddb 8abd f335 55be 4ab4 0ebe 5b65 c03e
000000e0: d417 b63e 5fb3 043e f824 9cbd 69d8 9f3e
000000f0: dd96 a8be cae8 8c3e 2c28 90bb 1353 fdbd
00000100: 6a33 96bd 4123 ba3e 0acf 483e b03c 87be
00000110: 911b ce3e 1f9c 88be 555b 83be 7c9a 273e
00000120: 1173 7c3c 9db8 a03d 92dc ec3b f41c 543e
00000130: 4986 a53e 4dc1 583e 8db7 173e b027 4ebe
00000140: 3d57 b8be cf0d 1bbe c53b 8f3e 8f7e 15be
00000150: fcae 263e 0330 dc3d 6e32 b33c 638d 0ebd
00000160: 9a07 953c db3f c83e 57f8 5f3e 409d 833e
00000170: 2661 1a3e cbef bf3e bfb8 563d caf4 70be
00000180: b433 b73e 4e49 8bbe b9a7 413e d57b 6c3e
00000190: 22be 903e 5c1d d03b e152 253e c74e 063e
000001a0: 0621 b43e 89c0 c2be 7a21 bbbe 3b53 a7bc
000001b0: abb7 8d3e 756d 0abe e1d4 80be cfa2 7bbe
000001c0: 249c eabd ed25 bf3e 3da7 e1bc 1807 d6bc
000001d0: f005 a2be 558a cf3d 24da 24be 7026 03be
000001e0: ef97 8b3e 59c4 f6bb 802b 27be 708f 81be
000001f0: e311 21be bb13 b33e d479 b6be d3ef b03e
00000200: 0fbd ccbe 313a 17be cc4d e43d 281b b93e
00000210: 70f9 0cbd 367c 823e 80de b4be 1cd1 6d3e
00000220: 9704 98be ed65 36be 1d35 45bd e2b2 82be
00000230: 644b cdbc 2b83 7c3d 9f4f 8a3e f8c6 7fbe
00000240: 1880 56be 8c18 983e 84a0 d73c 8ce7 03be
00000250: 694e b6be ce71 1ebe 9102 e83d e712 7c3e
00000260: 9d2f 5f3e 939e 9dbc 83b2 c4be 95bf ebbd
00000270: 6f7a aa3e 5a97 283e 7682 1a3e 751a 73be
00000280: 03f1 df3d 69d6 583e ce6a bebd ea52 50be
00000290: 6a20 ecbd 52bd c6be f201 9e3d 16fd 74bd
000002a0: 2191 b5be 5224 8e3d 5c19 2a3b 1691 8ebe
000002b0: 754b 5bbe 28f9 813e 2ec3 03be ca12 cc3e
000002c0: a000 9abe 4caa 813e 816e 563d 343a f039
000002d0: 61ad b7be 84a9 5abc a9cc 413e 9d68 a2be
000002e0: 1cbe 0abe c420 82be 85dc cdbe 67f9 823e
000002f0: f615 1bbe cc41 933e 8fc1 9c3e 3785 c33c
00000300: c94a 4a3e 7661 ec3d 9f9e c2be 4c64 27be
00000310: bc47 9d3e 1987 b1be 4e6f a63e 33b8 89be
00000320: c0ba a0bd 58cb f23c 21b1 2b3e 7f99 a3be
00000330: 5b3b 5f3c 0e5d c33d 52a2 cd3e fd06 9b3d
00000340: fef0 83be 4211 753e 0e06 913d 2de8 553e
00000350: d3eb 07bd 2e20 b73e 0f13 48bd ff02 bc3d
00000360: 49ce 6f3e 84e5 d7bd ca78 99be 3805 a13d
00000370: 95c1 b53e 1111 97be a08b 9fbe 3f83 f2bd
00000380: 8c8b 823e f9b4 76bd 2051 a9be 00f0 8abd
00000390: 802e 8d3e 1666 db3d 7b14 b3be ea8d 393d
000003a0: 99d4 913e a04a c1be 2b04 96be 79ca 5bbe
000003b0: 1a98 c03e 514c 8d3d 6acf 7dbc e535 f4bd
000003c0: 8622 133c c52f 823e 9b4f 31be c54b 973e
000003d0: 9f5d bcbe 251a 623e e376 933e fc5b 773d
000003e0: 40d9 263e 1b77 36be 92b3 813e 86c9 983d
000003f0: 0a71 643e 1e44 a8be 842d 963e 7537 0d3e

0.bias f4 [60]
-0.12429565 0.27390948 0.2769499 -0.15665577 0.35182166 0.12936176 -0.377597 -0.22989757
-0.12893306 0.3758491 -0.36095706 -0.2628856 0.3244641 -0.11381522 0.35398918 -0.028175034
-0.019395964 0.16730408 -0.14363815 0.42452657 -0.032903112 0.07654917 0.31218514 -0.32348523
-0.3084844 0.070436716 -0.016118014 -0.3178398 -0.16889238 0.2741041 -0.13037005 0.10379124
-0.2326876 -0.28752503 0.18501714 -0.19532306 -0.25835475 0.10386992 0.11137869 0.1663445
0.13804573 0.046240225 -0.13304824 0.11494127 -0.042808097 0.239987 -0.2687622 -0.33160156
0.33779293 -0.30465674 0.39335668 0.22342987 0.22000955 0.1944502 0.18393694 0.11716568
0.11676757 0.34211874 0.3304745 -0.38704786
00000000: b88e febd dd3d 8c3e 61cc 8d3e 5f6a 20be
00000010: f821 b43e 6977 043e 6554 c1be 456a 6bbe
00000020: 0707 04be 4b6f c03e 5dcf b8be f198 86be
00000030: 2920 a63e f417 e9bd 123e b53e 54cf e6bc
00000040: 49e4 9ebc c351 2b3e e115 13be 8c5b d93e
00000050: 6ac5 06bd d0c5 9c3d bbd6 9f3e db9f a5be
00000060: abf1 9dbe 2041 903d ed09 84bc e6bb a2be
00000070: 20f2 2cbe 5f57 8c3e ba7f 05be 8090 d43d
00000080: a945 6ebe 7b36 93be 2275 3d3e c502 48be
00000090: 1347 84be c1b9 d43d 831a e43d 3656 2a3e
000000a0: dc5b 0d3e 6466 3d3d cc3d 08be 5466 eb3d
000000b0: 8b57 2fbd 27bf 753e 339b 89be aec7 a9be
000000c0: 32f3 ac3e f8fb 9bbe 0c66 c93e cdca 643e
000000d0: 2f4a 613e f41d 473e f759 3c3e 8ff4 ef3d
000000e0: d623 ef3d 302a af3e f433 a93e 232b c6be
